node {
  name: "input"
  op: "Placeholder"
  attr {
    key: "dtype"
    value {
      type: DT_FLOAT
    }
  }
  attr {
    key: "shape"
    value {
      shape {
        dim {
          size: -1
        }
        dim {
          size: 784
        }
      }
    }
  }
}
node {
  name: "Placeholder"
  op: "Placeholder"
  attr {
    key: "dtype"
    value {
      type: DT_INT64
    }
  }
  attr {
    key: "shape"
    value {
      shape {
        dim {
          size: -1
        }
      }
    }
  }
}
node {
  name: "keep_prob"
  op: "Placeholder"
  attr {
    key: "dtype"
    value {
      type: DT_FLOAT
    }
  }
  attr {
    key: "shape"
    value {
      shape {
      }
    }
  }
}
node {
  name: "Reshape/shape"
  op: "Const"
  attr {
    key: "dtype"
    value {
      type: DT_INT32
    }
  }
  attr {
    key: "value"
    value {
      tensor {
        dtype: DT_INT32
        tensor_shape {
          dim {
            size: 4
          }
        }
        tensor_content: "\377\377\377\377\034\000\000\000\034\000\000\000\001\000\000\000"
      }
    }
  }
}
node {
  name: "Reshape"
  op: "Reshape"
  input: "input"
  input: "Reshape/shape"
  attr {
    key: "T"
    value {
      type: DT_FLOAT
    }
  }
  attr {
    key: "Tshape"
    value {
      type: DT_INT32
    }
  }
}
node {
  name: "input_1/tag"
  op: "Const"
  attr {
    key: "dtype"
    value {
      type: DT_STRING
    }
  }
  attr {
    key: "value"
    value {
      tensor {
        dtype: DT_STRING
        tensor_shape {
        }
        string_val: "input_1"
      }
    }
  }
}
node {
  name: "input_1"
  op: "ImageSummary"
  input: "input_1/tag"
  input: "Reshape"
  attr {
    key: "T"
    value {
      type: DT_FLOAT
    }
  }
  attr {
    key: "bad_color"
    value {
      tensor {
        dtype: DT_UINT8
        tensor_shape {
          dim {
            size: 4
          }
        }
        int_val: 255
        int_val: 0
        int_val: 0
        int_val: 255
      }
    }
  }
  attr {
    key: "max_images"
    value {
      i: 10
    }
  }
}
node {
  name: "pvg_model/conv1/weights/Initializer/truncated_normal/shape"
  op: "Const"
  attr {
    key: "_class"
    value {
      list {
        s: "loc:@pvg_model/conv1/weights"
      }
    }
  }
  attr {
    key: "dtype"
    value {
      type: DT_INT32
    }
  }
  attr {
    key: "value"
    value {
      tensor {
        dtype: DT_INT32
        tensor_shape {
          dim {
            size: 4
          }
        }
        tensor_content: "\005\000\000\000\005\000\000\000\001\000\000\000\024\000\000\000"
      }
    }
  }
}
node {
  name: "pvg_model/conv1/weights/Initializer/truncated_normal/mean"
  op: "Const"
  attr {
    key: "_class"
    value {
      list {
        s: "loc:@pvg_model/conv1/weights"
      }
    }
  }
  attr {
    key: "dtype"
    value {
      type: DT_FLOAT
    }
  }
  attr {
    key: "value"
    value {
      tensor {
        dtype: DT_FLOAT
        tensor_shape {
        }
        float_val: 0.0
      }
    }
  }
}
node {
  name: "pvg_model/conv1/weights/Initializer/truncated_normal/stddev"
  op: "Const"
  attr {
    key: "_class"
    value {
      list {
        s: "loc:@pvg_model/conv1/weights"
      }
    }
  }
  attr {
    key: "dtype"
    value {
      type: DT_FLOAT
    }
  }
  attr {
    key: "value"
    value {
      tensor {
        dtype: DT_FLOAT
        tensor_shape {
        }
        float_val: 0.32249030470848083
      }
    }
  }
}
node {
  name: "pvg_model/conv1/weights/Initializer/truncated_normal/TruncatedNormal"
  op: "TruncatedNormal"
  input: "pvg_model/conv1/weights/Initializer/truncated_normal/shape"
  attr {
    key: "T"
    value {
      type: DT_INT32
    }
  }
  attr {
    key: "_class"
    value {
      list {
        s: "loc:@pvg_model/conv1/weights"
      }
    }
  }
  attr {
    key: "dtype"
    value {
      type: DT_FLOAT
    }
  }
  attr {
    key: "seed"
    value {
      i: 0
    }
  }
  attr {
    key: "seed2"
    value {
      i: 0
    }
  }
}
node {
  name: "pvg_model/conv1/weights/Initializer/truncated_normal/mul"
  op: "Mul"
  input: "pvg_model/conv1/weights/Initializer/truncated_normal/TruncatedNormal"
  input: "pvg_model/conv1/weights/Initializer/truncated_normal/stddev"
  attr {
    key: "T"
    value {
      type: DT_FLOAT
    }
  }
  attr {
    key: "_class"
    value {
      list {
        s: "loc:@pvg_model/conv1/weights"
      }
    }
  }
}
node {
  name: "pvg_model/conv1/weights/Initializer/truncated_normal"
  op: "Add"
  input: "pvg_model/conv1/weights/Initializer/truncated_normal/mul"
  input: "pvg_model/conv1/weights/Initializer/truncated_normal/mean"
  attr {
    key: "T"
    value {
      type: DT_FLOAT
    }
  }
  attr {
    key: "_class"
    value {
      list {
        s: "loc:@pvg_model/conv1/weights"
      }
    }
  }
}
node {
  name: "pvg_model/conv1/weights"
  op: "VariableV2"
  attr {
    key: "_class"
    value {
      list {
        s: "loc:@pvg_model/conv1/weights"
      }
    }
  }
  attr {
    key: "container"
    value {
      s: ""
    }
  }
  attr {
    key: "dtype"
    value {
      type: DT_FLOAT
    }
  }
  attr {
    key: "shape"
    value {
      shape {
        dim {
          size: 5
        }
        dim {
          size: 5
        }
        dim {
          size: 1
        }
        dim {
          size: 20
        }
      }
    }
  }
  attr {
    key: "shared_name"
    value {
      s: ""
    }
  }
}
node {
  name: "pvg_model/conv1/weights/Assign"
  op: "Assign"
  input: "pvg_model/conv1/weights"
  input: "pvg_model/conv1/weights/Initializer/truncated_normal"
  attr {
    key: "T"
    value {
      type: DT_FLOAT
    }
  }
  attr {
    key: "_class"
    value {
      list {
        s: "loc:@pvg_model/conv1/weights"
      }
    }
  }
  attr {
    key: "use_locking"
    value {
      b: true
    }
  }
  attr {
    key: "validate_shape"
    value {
      b: true
    }
  }
}
node {
  name: "pvg_model/conv1/weights/read"
  op: "Identity"
  input: "pvg_model/conv1/weights"
  attr {
    key: "T"
    value {
      type: DT_FLOAT
    }
  }
  attr {
    key: "_class"
    value {
      list {
        s: "loc:@pvg_model/conv1/weights"
      }
    }
  }
}
node {
  name: "pvg_model/conv1/kernel/Regularizer/l2_regularizer/scale"
  op: "Const"
  attr {
    key: "_class"
    value {
      list {
        s: "loc:@pvg_model/conv1/weights"
      }
    }
  }
  attr {
    key: "dtype"
    value {
      type: DT_FLOAT
    }
  }
  attr {
    key: "value"
    value {
      tensor {
        dtype: DT_FLOAT
        tensor_shape {
        }
        float_val: 0.05000000074505806
      }
    }
  }
}
node {
  name: "pvg_model/conv1/kernel/Regularizer/l2_regularizer/L2Loss"
  op: "L2Loss"
  input: "pvg_model/conv1/weights/read"
  attr {
    key: "T"
    value {
      type: DT_FLOAT
    }
  }
  attr {
    key: "_class"
    value {
      list {
        s: "loc:@pvg_model/conv1/weights"
      }
    }
  }
}
node {
  name: "pvg_model/conv1/kernel/Regularizer/l2_regularizer"
  op: "Mul"
  input: "pvg_model/conv1/kernel/Regularizer/l2_regularizer/scale"
  input: "pvg_model/conv1/kernel/Regularizer/l2_regularizer/L2Loss"
  attr {
    key: "T"
    value {
      type: DT_FLOAT
    }
  }
  attr {
    key: "_class"
    value {
      list {
        s: "loc:@pvg_model/conv1/weights"
      }
    }
  }
}
node {
  name: "pvg_model/conv1/biases/Initializer/zeros"
  op: "Const"
  attr {
    key: "_class"
    value {
      list {
        s: "loc:@pvg_model/conv1/biases"
      }
    }
  }
  attr {
    key: "dtype"
    value {
      type: DT_FLOAT
    }
  }
  attr {
    key: "value"
    value {
      tensor {
        dtype: DT_FLOAT
        tensor_shape {
          dim {
            size: 20
          }
        }
        float_val: 0.0
      }
    }
  }
}
node {
  name: "pvg_model/conv1/biases"
  op: "VariableV2"
  attr {
    key: "_class"
    value {
      list {
        s: "loc:@pvg_model/conv1/biases"
      }
    }
  }
  attr {
    key: "container"
    value {
      s: ""
    }
  }
  attr {
    key: "dtype"
    value {
      type: DT_FLOAT
    }
  }
  attr {
    key: "shape"
    value {
      shape {
        dim {
          size: 20
        }
      }
    }
  }
  attr {
    key: "shared_name"
    value {
      s: ""
    }
  }
}
node {
  name: "pvg_model/conv1/biases/Assign"
  op: "Assign"
  input: "pvg_model/conv1/biases"
  input: "pvg_model/conv1/biases/Initializer/zeros"
  attr {
    key: "T"
    value {
      type: DT_FLOAT
    }
  }
  attr {
    key: "_class"
    value {
      list {
        s: "loc:@pvg_model/conv1/biases"
      }
    }
  }
  attr {
    key: "use_locking"
    value {
      b: true
    }
  }
  attr {
    key: "validate_shape"
    value {
      b: true
    }
  }
}
node {
  name: "pvg_model/conv1/biases/read"
  op: "Identity"
  input: "pvg_model/conv1/biases"
  attr {
    key: "T"
    value {
      type: DT_FLOAT
    }
  }
  attr {
    key: "_class"
    value {
      list {
        s: "loc:@pvg_model/conv1/biases"
      }
    }
  }
}
node {
  name: "pvg_model/conv1/dilation_rate"
  op: "Const"
  attr {
    key: "dtype"
    value {
      type: DT_INT32
    }
  }
  attr {
    key: "value"
    value {
      tensor {
        dtype: DT_INT32
        tensor_shape {
          dim {
            size: 2
          }
        }
        tensor_content: "\001\000\000\000\001\000\000\000"
      }
    }
  }
}
node {
  name: "pvg_model/conv1/Conv2D"
  op: "Conv2D"
  input: "Reshape"
  input: "pvg_model/conv1/weights/read"
  attr {
    key: "T"
    value {
      type: DT_FLOAT
    }
  }
  attr {
    key: "data_format"
    value {
      s: "NHWC"
    }
  }
  attr {
    key: "padding"
    value {
      s: "SAME"
    }
  }
  attr {
    key: "strides"
    value {
      list {
        i: 1
        i: 1
        i: 1
        i: 1
      }
    }
  }
  attr {
    key: "use_cudnn_on_gpu"
    value {
      b: true
    }
  }
}
node {
  name: "pvg_model/conv1/BiasAdd"
  op: "BiasAdd"
  input: "pvg_model/conv1/Conv2D"
  input: "pvg_model/conv1/biases/read"
  attr {
    key: "T"
    value {
      type: DT_FLOAT
    }
  }
  attr {
    key: "data_format"
    value {
      s: "NHWC"
    }
  }
}
node {
  name: "pvg_model/conv1/Relu"
  op: "Relu"
  input: "pvg_model/conv1/BiasAdd"
  attr {
    key: "T"
    value {
      type: DT_FLOAT
    }
  }
}
node {
  name: "pvg_model/pool1/MaxPool"
  op: "MaxPool"
  input: "pvg_model/conv1/Relu"
  attr {
    key: "T"
    value {
      type: DT_FLOAT
    }
  }
  attr {
    key: "data_format"
    value {
      s: "NHWC"
    }
  }
  attr {
    key: "ksize"
    value {
      list {
        i: 1
        i: 2
        i: 2
        i: 1
      }
    }
  }
  attr {
    key: "padding"
    value {
      s: "VALID"
    }
  }
  attr {
    key: "strides"
    value {
      list {
        i: 1
        i: 2
        i: 2
        i: 1
      }
    }
  }
}
node {
  name: "pvg_model/BatchNorm/Const"
  op: "Const"
  attr {
    key: "dtype"
    value {
      type: DT_FLOAT
    }
  }
  attr {
    key: "value"
    value {
      tensor {
        dtype: DT_FLOAT
        tensor_shape {
          dim {
            size: 20
          }
        }
        float_val: 1.0
      }
    }
  }
}
node {
  name: "pvg_model/BatchNorm/beta/Initializer/zeros"
  op: "Const"
  attr {
    key: "_class"
    value {
      list {
        s: "loc:@pvg_model/BatchNorm/beta"
      }
    }
  }
  attr {
    key: "dtype"
    value {
      type: DT_FLOAT
    }
  }
  attr {
    key: "value"
    value {
      tensor {
        dtype: DT_FLOAT
        tensor_shape {
          dim {
            size: 20
          }
        }
        float_val: 0.0
      }
    }
  }
}
node {
  name: "pvg_model/BatchNorm/beta"
  op: "VariableV2"
  attr {
    key: "_class"
    value {
      list {
        s: "loc:@pvg_model/BatchNorm/beta"
      }
    }
  }
  attr {
    key: "container"
    value {
      s: ""
    }
  }
  attr {
    key: "dtype"
    value {
      type: DT_FLOAT
    }
  }
  attr {
    key: "shape"
    value {
      shape {
        dim {
          size: 20
        }
      }
    }
  }
  attr {
    key: "shared_name"
    value {
      s: ""
    }
  }
}
node {
  name: "pvg_model/BatchNorm/beta/Assign"
  op: "Assign"
  input: "pvg_model/BatchNorm/beta"
  input: "pvg_model/BatchNorm/beta/Initializer/zeros"
  attr {
    key: "T"
    value {
      type: DT_FLOAT
    }
  }
  attr {
    key: "_class"
    value {
      list {
        s: "loc:@pvg_model/BatchNorm/beta"
      }
    }
  }
  attr {
    key: "use_locking"
    value {
      b: true
    }
  }
  attr {
    key: "validate_shape"
    value {
      b: true
    }
  }
}
node {
  name: "pvg_model/BatchNorm/beta/read"
  op: "Identity"
  input: "pvg_model/BatchNorm/beta"
  attr {
    key: "T"
    value {
      type: DT_FLOAT
    }
  }
  attr {
    key: "_class"
    value {
      list {
        s: "loc:@pvg_model/BatchNorm/beta"
      }
    }
  }
}
node {
  name: "pvg_model/BatchNorm/moving_mean/Initializer/zeros"
  op: "Const"
  attr {
    key: "_class"
    value {
      list {
        s: "loc:@pvg_model/BatchNorm/moving_mean"
      }
    }
  }
  attr {
    key: "dtype"
    value {
      type: DT_FLOAT
    }
  }
  attr {
    key: "value"
    value {
      tensor {
        dtype: DT_FLOAT
        tensor_shape {
          dim {
            size: 20
          }
        }
        float_val: 0.0
      }
    }
  }
}
node {
  name: "pvg_model/BatchNorm/moving_mean"
  op: "VariableV2"
  attr {
    key: "_class"
    value {
      list {
        s: "loc:@pvg_model/BatchNorm/moving_mean"
      }
    }
  }
  attr {
    key: "container"
    value {
      s: ""
    }
  }
  attr {
    key: "dtype"
    value {
      type: DT_FLOAT
    }
  }
  attr {
    key: "shape"
    value {
      shape {
        dim {
          size: 20
        }
      }
    }
  }
  attr {
    key: "shared_name"
    value {
      s: ""
    }
  }
}
node {
  name: "pvg_model/BatchNorm/moving_mean/Assign"
  op: "Assign"
  input: "pvg_model/BatchNorm/moving_mean"
  input: "pvg_model/BatchNorm/moving_mean/Initializer/zeros"
  attr {
    key: "T"
    value {
      type: DT_FLOAT
    }
  }
  attr {
    key: "_class"
    value {
      list {
        s: "loc:@pvg_model/BatchNorm/moving_mean"
      }
    }
  }
  attr {
    key: "use_locking"
    value {
      b: true
    }
  }
  attr {
    key: "validate_shape"
    value {
      b: true
    }
  }
}
node {
  name: "pvg_model/BatchNorm/moving_mean/read"
  op: "Identity"
  input: "pvg_model/BatchNorm/moving_mean"
  attr {
    key: "T"
    value {
      type: DT_FLOAT
    }
  }
  attr {
    key: "_class"
    value {
      list {
        s: "loc:@pvg_model/BatchNorm/moving_mean"
      }
    }
  }
}
node {
  name: "pvg_model/BatchNorm/moving_variance/Initializer/ones"
  op: "Const"
  attr {
    key: "_class"
    value {
      list {
        s: "loc:@pvg_model/BatchNorm/moving_variance"
      }
    }
  }
  attr {
    key: "dtype"
    value {
      type: DT_FLOAT
    }
  }
  attr {
    key: "value"
    value {
      tensor {
        dtype: DT_FLOAT
        tensor_shape {
          dim {
            size: 20
          }
        }
        float_val: 1.0
      }
    }
  }
}
node {
  name: "pvg_model/BatchNorm/moving_variance"
  op: "VariableV2"
  attr {
    key: "_class"
    value {
      list {
        s: "loc:@pvg_model/BatchNorm/moving_variance"
      }
    }
  }
  attr {
    key: "container"
    value {
      s: ""
    }
  }
  attr {
    key: "dtype"
    value {
      type: DT_FLOAT
    }
  }
  attr {
    key: "shape"
    value {
      shape {
        dim {
          size: 20
        }
      }
    }
  }
  attr {
    key: "shared_name"
    value {
      s: ""
    }
  }
}
node {
  name: "pvg_model/BatchNorm/moving_variance/Assign"
  op: "Assign"
  input: "pvg_model/BatchNorm/moving_variance"
  input: "pvg_model/BatchNorm/moving_variance/Initializer/ones"
  attr {
    key: "T"
    value {
      type: DT_FLOAT
    }
  }
  attr {
    key: "_class"
    value {
      list {
        s: "loc:@pvg_model/BatchNorm/moving_variance"
      }
    }
  }
  attr {
    key: "use_locking"
    value {
      b: true
    }
  }
  attr {
    key: "validate_shape"
    value {
      b: true
    }
  }
}
node {
  name: "pvg_model/BatchNorm/moving_variance/read"
  op: "Identity"
  input: "pvg_model/BatchNorm/moving_variance"
  attr {
    key: "T"
    value {
      type: DT_FLOAT
    }
  }
  attr {
    key: "_class"
    value {
      list {
        s: "loc:@pvg_model/BatchNorm/moving_variance"
      }
    }
  }
}
node {
  name: "pvg_model/BatchNorm/Const_1"
  op: "Const"
  attr {
    key: "dtype"
    value {
      type: DT_FLOAT
    }
  }
  attr {
    key: "value"
    value {
      tensor {
        dtype: DT_FLOAT
        tensor_shape {
          dim {
          }
        }
      }
    }
  }
}
node {
  name: "pvg_model/BatchNorm/Const_2"
  op: "Const"
  attr {
    key: "dtype"
    value {
      type: DT_FLOAT
    }
  }
  attr {
    key: "value"
    value {
      tensor {
        dtype: DT_FLOAT
        tensor_shape {
          dim {
          }
        }
      }
    }
  }
}
node {
  name: "pvg_model/BatchNorm/FusedBatchNorm"
  op: "FusedBatchNorm"
  input: "pvg_model/pool1/MaxPool"
  input: "pvg_model/BatchNorm/Const"
  input: "pvg_model/BatchNorm/beta/read"
  input: "pvg_model/BatchNorm/Const_1"
  input: "pvg_model/BatchNorm/Const_2"
  attr {
    key: "T"
    value {
      type: DT_FLOAT
    }
  }
  attr {
    key: "data_format"
    value {
      s: "NHWC"
    }
  }
  attr {
    key: "epsilon"
    value {
      f: 0.0010000000474974513
    }
  }
  attr {
    key: "is_training"
    value {
      b: true
    }
  }
}
node {
  name: "pvg_model/BatchNorm/Const_3"
  op: "Const"
  attr {
    key: "dtype"
    value {
      type: DT_FLOAT
    }
  }
  attr {
    key: "value"
    value {
      tensor {
        dtype: DT_FLOAT
        tensor_shape {
        }
        float_val: 0.0010000000474974513
      }
    }
  }
}
node {
  name: "pvg_model/BatchNorm/AssignMovingAvg/read"
  op: "Identity"
  input: "pvg_model/BatchNorm/moving_mean"
  attr {
    key: "T"
    value {
      type: DT_FLOAT
    }
  }
  attr {
    key: "_class"
    value {
      list {
        s: "loc:@pvg_model/BatchNorm/moving_mean"
      }
    }
  }
}
node {
  name: "pvg_model/BatchNorm/AssignMovingAvg/Sub"
  op: "Sub"
  input: "pvg_model/BatchNorm/AssignMovingAvg/read"
  input: "pvg_model/BatchNorm/FusedBatchNorm:1"
  attr {
    key: "T"
    value {
      type: DT_FLOAT
    }
  }
  attr {
    key: "_class"
    value {
      list {
        s: "loc:@pvg_model/BatchNorm/moving_mean"
      }
    }
  }
}
node {
  name: "pvg_model/BatchNorm/AssignMovingAvg/Mul"
  op: "Mul"
  input: "pvg_model/BatchNorm/AssignMovingAvg/Sub"
  input: "pvg_model/BatchNorm/Const_3"
  attr {
    key: "T"
    value {
      type: DT_FLOAT
    }
  }
  attr {
    key: "_class"
    value {
      list {
        s: "loc:@pvg_model/BatchNorm/moving_mean"
      }
    }
  }
}
node {
  name: "pvg_model/BatchNorm/AssignMovingAvg"
  op: "AssignSub"
  input: "pvg_model/BatchNorm/moving_mean"
  input: "pvg_model/BatchNorm/AssignMovingAvg/Mul"
  attr {
    key: "T"
    value {
      type: DT_FLOAT
    }
  }
  attr {
    key: "_class"
    value {
      list {
        s: "loc:@pvg_model/BatchNorm/moving_mean"
      }
    }
  }
  attr {
    key: "use_locking"
    value {
      b: false
    }
  }
}
node {
  name: "pvg_model/BatchNorm/AssignMovingAvg_1/read"
  op: "Identity"
  input: "pvg_model/BatchNorm/moving_variance"
  attr {
    key: "T"
    value {
      type: DT_FLOAT
    }
  }
  attr {
    key: "_class"
    value {
      list {
        s: "loc:@pvg_model/BatchNorm/moving_variance"
      }
    }
  }
}
node {
  name: "pvg_model/BatchNorm/AssignMovingAvg_1/Sub"
  op: "Sub"
  input: "pvg_model/BatchNorm/AssignMovingAvg_1/read"
  input: "pvg_model/BatchNorm/FusedBatchNorm:2"
  attr {
    key: "T"
    value {
      type: DT_FLOAT
    }
  }
  attr {
    key: "_class"
    value {
      list {
        s: "loc:@pvg_model/BatchNorm/moving_variance"
      }
    }
  }
}
node {
  name: "pvg_model/BatchNorm/AssignMovingAvg_1/Mul"
  op: "Mul"
  input: "pvg_model/BatchNorm/AssignMovingAvg_1/Sub"
  input: "pvg_model/BatchNorm/Const_3"
  attr {
    key: "T"
    value {
      type: DT_FLOAT
    }
  }
  attr {
    key: "_class"
    value {
      list {
        s: "loc:@pvg_model/BatchNorm/moving_variance"
      }
    }
  }
}
node {
  name: "pvg_model/BatchNorm/AssignMovingAvg_1"
  op: "AssignSub"
  input: "pvg_model/BatchNorm/moving_variance"
  input: "pvg_model/BatchNorm/AssignMovingAvg_1/Mul"
  attr {
    key: "T"
    value {
      type: DT_FLOAT
    }
  }
  attr {
    key: "_class"
    value {
      list {
        s: "loc:@pvg_model/BatchNorm/moving_variance"
      }
    }
  }
  attr {
    key: "use_locking"
    value {
      b: false
    }
  }
}
node {
  name: "pvg_model/conv2/weights/Initializer/truncated_normal/shape"
  op: "Const"
  attr {
    key: "_class"
    value {
      list {
        s: "loc:@pvg_model/conv2/weights"
      }
    }
  }
  attr {
    key: "dtype"
    value {
      type: DT_INT32
    }
  }
  attr {
    key: "value"
    value {
      tensor {
        dtype: DT_INT32
        tensor_shape {
          dim {
            size: 4
          }
        }
        tensor_content: "\005\000\000\000\005\000\000\000\024\000\000\0002\000\000\000"
      }
    }
  }
}
node {
  name: "pvg_model/conv2/weights/Initializer/truncated_normal/mean"
  op: "Const"
  attr {
    key: "_class"
    value {
      list {
        s: "loc:@pvg_model/conv2/weights"
      }
    }
  }
  attr {
    key: "dtype"
    value {
      type: DT_FLOAT
    }
  }
  attr {
    key: "value"
    value {
      tensor {
        dtype: DT_FLOAT
        tensor_shape {
        }
        float_val: 0.0
      }
    }
  }
}
node {
  name: "pvg_model/conv2/weights/Initializer/truncated_normal/stddev"
  op: "Const"
  attr {
    key: "_class"
    value {
      list {
        s: "loc:@pvg_model/conv2/weights"
      }
    }
  }
  attr {
    key: "dtype"
    value {
      type: DT_FLOAT
    }
  }
  attr {
    key: "value"
    value {
      tensor {
        dtype: DT_FLOAT
        tensor_shape {
        }
        float_val: 0.07211102545261383
      }
    }
  }
}
node {
  name: "pvg_model/conv2/weights/Initializer/truncated_normal/TruncatedNormal"
  op: "TruncatedNormal"
  input: "pvg_model/conv2/weights/Initializer/truncated_normal/shape"
  attr {
    key: "T"
    value {
      type: DT_INT32
    }
  }
  attr {
    key: "_class"
    value {
      list {
        s: "loc:@pvg_model/conv2/weights"
      }
    }
  }
  attr {
    key: "dtype"
    value {
      type: DT_FLOAT
    }
  }
  attr {
    key: "seed"
    value {
      i: 0
    }
  }
  attr {
    key: "seed2"
    value {
      i: 0
    }
  }
}
node {
  name: "pvg_model/conv2/weights/Initializer/truncated_normal/mul"
  op: "Mul"
  input: "pvg_model/conv2/weights/Initializer/truncated_normal/TruncatedNormal"
  input: "pvg_model/conv2/weights/Initializer/truncated_normal/stddev"
  attr {
    key: "T"
    value {
      type: DT_FLOAT
    }
  }
  attr {
    key: "_class"
    value {
      list {
        s: "loc:@pvg_model/conv2/weights"
      }
    }
  }
}
node {
  name: "pvg_model/conv2/weights/Initializer/truncated_normal"
  op: "Add"
  input: "pvg_model/conv2/weights/Initializer/truncated_normal/mul"
  input: "pvg_model/conv2/weights/Initializer/truncated_normal/mean"
  attr {
    key: "T"
    value {
      type: DT_FLOAT
    }
  }
  attr {
    key: "_class"
    value {
      list {
        s: "loc:@pvg_model/conv2/weights"
      }
    }
  }
}
node {
  name: "pvg_model/conv2/weights"
  op: "VariableV2"
  attr {
    key: "_class"
    value {
      list {
        s: "loc:@pvg_model/conv2/weights"
      }
    }
  }
  attr {
    key: "container"
    value {
      s: ""
    }
  }
  attr {
    key: "dtype"
    value {
      type: DT_FLOAT
    }
  }
  attr {
    key: "shape"
    value {
      shape {
        dim {
          size: 5
        }
        dim {
          size: 5
        }
        dim {
          size: 20
        }
        dim {
          size: 50
        }
      }
    }
  }
  attr {
    key: "shared_name"
    value {
      s: ""
    }
  }
}
node {
  name: "pvg_model/conv2/weights/Assign"
  op: "Assign"
  input: "pvg_model/conv2/weights"
  input: "pvg_model/conv2/weights/Initializer/truncated_normal"
  attr {
    key: "T"
    value {
      type: DT_FLOAT
    }
  }
  attr {
    key: "_class"
    value {
      list {
        s: "loc:@pvg_model/conv2/weights"
      }
    }
  }
  attr {
    key: "use_locking"
    value {
      b: true
    }
  }
  attr {
    key: "validate_shape"
    value {
      b: true
    }
  }
}
node {
  name: "pvg_model/conv2/weights/read"
  op: "Identity"
  input: "pvg_model/conv2/weights"
  attr {
    key: "T"
    value {
      type: DT_FLOAT
    }
  }
  attr {
    key: "_class"
    value {
      list {
        s: "loc:@pvg_model/conv2/weights"
      }
    }
  }
}
node {
  name: "pvg_model/conv2/kernel/Regularizer/l2_regularizer/scale"
  op: "Const"
  attr {
    key: "_class"
    value {
      list {
        s: "loc:@pvg_model/conv2/weights"
      }
    }
  }
  attr {
    key: "dtype"
    value {
      type: DT_FLOAT
    }
  }
  attr {
    key: "value"
    value {
      tensor {
        dtype: DT_FLOAT
        tensor_shape {
        }
        float_val: 0.05000000074505806
      }
    }
  }
}
node {
  name: "pvg_model/conv2/kernel/Regularizer/l2_regularizer/L2Loss"
  op: "L2Loss"
  input: "pvg_model/conv2/weights/read"
  attr {
    key: "T"
    value {
      type: DT_FLOAT
    }
  }
  attr {
    key: "_class"
    value {
      list {
        s: "loc:@pvg_model/conv2/weights"
      }
    }
  }
}
node {
  name: "pvg_model/conv2/kernel/Regularizer/l2_regularizer"
  op: "Mul"
  input: "pvg_model/conv2/kernel/Regularizer/l2_regularizer/scale"
  input: "pvg_model/conv2/kernel/Regularizer/l2_regularizer/L2Loss"
  attr {
    key: "T"
    value {
      type: DT_FLOAT
    }
  }
  attr {
    key: "_class"
    value {
      list {
        s: "loc:@pvg_model/conv2/weights"
      }
    }
  }
}
node {
  name: "pvg_model/conv2/biases/Initializer/zeros"
  op: "Const"
  attr {
    key: "_class"
    value {
      list {
        s: "loc:@pvg_model/conv2/biases"
      }
    }
  }
  attr {
    key: "dtype"
    value {
      type: DT_FLOAT
    }
  }
  attr {
    key: "value"
    value {
      tensor {
        dtype: DT_FLOAT
        tensor_shape {
          dim {
            size: 50
          }
        }
        float_val: 0.0
      }
    }
  }
}
node {
  name: "pvg_model/conv2/biases"
  op: "VariableV2"
  attr {
    key: "_class"
    value {
      list {
        s: "loc:@pvg_model/conv2/biases"
      }
    }
  }
  attr {
    key: "container"
    value {
      s: ""
    }
  }
  attr {
    key: "dtype"
    value {
      type: DT_FLOAT
    }
  }
  attr {
    key: "shape"
    value {
      shape {
        dim {
          size: 50
        }
      }
    }
  }
  attr {
    key: "shared_name"
    value {
      s: ""
    }
  }
}
node {
  name: "pvg_model/conv2/biases/Assign"
  op: "Assign"
  input: "pvg_model/conv2/biases"
  input: "pvg_model/conv2/biases/Initializer/zeros"
  attr {
    key: "T"
    value {
      type: DT_FLOAT
    }
  }
  attr {
    key: "_class"
    value {
      list {
        s: "loc:@pvg_model/conv2/biases"
      }
    }
  }
  attr {
    key: "use_locking"
    value {
      b: true
    }
  }
  attr {
    key: "validate_shape"
    value {
      b: true
    }
  }
}
node {
  name: "pvg_model/conv2/biases/read"
  op: "Identity"
  input: "pvg_model/conv2/biases"
  attr {
    key: "T"
    value {
      type: DT_FLOAT
    }
  }
  attr {
    key: "_class"
    value {
      list {
        s: "loc:@pvg_model/conv2/biases"
      }
    }
  }
}
node {
  name: "pvg_model/conv2/dilation_rate"
  op: "Const"
  attr {
    key: "dtype"
    value {
      type: DT_INT32
    }
  }
  attr {
    key: "value"
    value {
      tensor {
        dtype: DT_INT32
        tensor_shape {
          dim {
            size: 2
          }
        }
        tensor_content: "\001\000\000\000\001\000\000\000"
      }
    }
  }
}
node {
  name: "pvg_model/conv2/Conv2D"
  op: "Conv2D"
  input: "pvg_model/BatchNorm/FusedBatchNorm"
  input: "pvg_model/conv2/weights/read"
  attr {
    key: "T"
    value {
      type: DT_FLOAT
    }
  }
  attr {
    key: "data_format"
    value {
      s: "NHWC"
    }
  }
  attr {
    key: "padding"
    value {
      s: "SAME"
    }
  }
  attr {
    key: "strides"
    value {
      list {
        i: 1
        i: 1
        i: 1
        i: 1
      }
    }
  }
  attr {
    key: "use_cudnn_on_gpu"
    value {
      b: true
    }
  }
}
node {
  name: "pvg_model/conv2/BiasAdd"
  op: "BiasAdd"
  input: "pvg_model/conv2/Conv2D"
  input: "pvg_model/conv2/biases/read"
  attr {
    key: "T"
    value {
      type: DT_FLOAT
    }
  }
  attr {
    key: "data_format"
    value {
      s: "NHWC"
    }
  }
}
node {
  name: "pvg_model/conv2/Relu"
  op: "Relu"
  input: "pvg_model/conv2/BiasAdd"
  attr {
    key: "T"
    value {
      type: DT_FLOAT
    }
  }
}
node {
  name: "pvg_model/pool2/MaxPool"
  op: "MaxPool"
  input: "pvg_model/conv2/Relu"
  attr {
    key: "T"
    value {
      type: DT_FLOAT
    }
  }
  attr {
    key: "data_format"
    value {
      s: "NHWC"
    }
  }
  attr {
    key: "ksize"
    value {
      list {
        i: 1
        i: 2
        i: 2
        i: 1
      }
    }
  }
  attr {
    key: "padding"
    value {
      s: "VALID"
    }
  }
  attr {
    key: "strides"
    value {
      list {
        i: 1
        i: 2
        i: 2
        i: 1
      }
    }
  }
}
node {
  name: "pvg_model/BatchNorm_1/Const"
  op: "Const"
  attr {
    key: "dtype"
    value {
      type: DT_FLOAT
    }
  }
  attr {
    key: "value"
    value {
      tensor {
        dtype: DT_FLOAT
        tensor_shape {
          dim {
            size: 50
          }
        }
        float_val: 1.0
      }
    }
  }
}
node {
  name: "pvg_model/BatchNorm_1/beta/Initializer/zeros"
  op: "Const"
  attr {
    key: "_class"
    value {
      list {
        s: "loc:@pvg_model/BatchNorm_1/beta"
      }
    }
  }
  attr {
    key: "dtype"
    value {
      type: DT_FLOAT
    }
  }
  attr {
    key: "value"
    value {
      tensor {
        dtype: DT_FLOAT
        tensor_shape {
          dim {
            size: 50
          }
        }
        float_val: 0.0
      }
    }
  }
}
node {
  name: "pvg_model/BatchNorm_1/beta"
  op: "VariableV2"
  attr {
    key: "_class"
    value {
      list {
        s: "loc:@pvg_model/BatchNorm_1/beta"
      }
    }
  }
  attr {
    key: "container"
    value {
      s: ""
    }
  }
  attr {
    key: "dtype"
    value {
      type: DT_FLOAT
    }
  }
  attr {
    key: "shape"
    value {
      shape {
        dim {
          size: 50
        }
      }
    }
  }
  attr {
    key: "shared_name"
    value {
      s: ""
    }
  }
}
node {
  name: "pvg_model/BatchNorm_1/beta/Assign"
  op: "Assign"
  input: "pvg_model/BatchNorm_1/beta"
  input: "pvg_model/BatchNorm_1/beta/Initializer/zeros"
  attr {
    key: "T"
    value {
      type: DT_FLOAT
    }
  }
  attr {
    key: "_class"
    value {
      list {
        s: "loc:@pvg_model/BatchNorm_1/beta"
      }
    }
  }
  attr {
    key: "use_locking"
    value {
      b: true
    }
  }
  attr {
    key: "validate_shape"
    value {
      b: true
    }
  }
}
node {
  name: "pvg_model/BatchNorm_1/beta/read"
  op: "Identity"
  input: "pvg_model/BatchNorm_1/beta"
  attr {
    key: "T"
    value {
      type: DT_FLOAT
    }
  }
  attr {
    key: "_class"
    value {
      list {
        s: "loc:@pvg_model/BatchNorm_1/beta"
      }
    }
  }
}
node {
  name: "pvg_model/BatchNorm_1/moving_mean/Initializer/zeros"
  op: "Const"
  attr {
    key: "_class"
    value {
      list {
        s: "loc:@pvg_model/BatchNorm_1/moving_mean"
      }
    }
  }
  attr {
    key: "dtype"
    value {
      type: DT_FLOAT
    }
  }
  attr {
    key: "value"
    value {
      tensor {
        dtype: DT_FLOAT
        tensor_shape {
          dim {
            size: 50
          }
        }
        float_val: 0.0
      }
    }
  }
}
node {
  name: "pvg_model/BatchNorm_1/moving_mean"
  op: "VariableV2"
  attr {
    key: "_class"
    value {
      list {
        s: "loc:@pvg_model/BatchNorm_1/moving_mean"
      }
    }
  }
  attr {
    key: "container"
    value {
      s: ""
    }
  }
  attr {
    key: "dtype"
    value {
      type: DT_FLOAT
    }
  }
  attr {
    key: "shape"
    value {
      shape {
        dim {
          size: 50
        }
      }
    }
  }
  attr {
    key: "shared_name"
    value {
      s: ""
    }
  }
}
node {
  name: "pvg_model/BatchNorm_1/moving_mean/Assign"
  op: "Assign"
  input: "pvg_model/BatchNorm_1/moving_mean"
  input: "pvg_model/BatchNorm_1/moving_mean/Initializer/zeros"
  attr {
    key: "T"
    value {
      type: DT_FLOAT
    }
  }
  attr {
    key: "_class"
    value {
      list {
        s: "loc:@pvg_model/BatchNorm_1/moving_mean"
      }
    }
  }
  attr {
    key: "use_locking"
    value {
      b: true
    }
  }
  attr {
    key: "validate_shape"
    value {
      b: true
    }
  }
}
node {
  name: "pvg_model/BatchNorm_1/moving_mean/read"
  op: "Identity"
  input: "pvg_model/BatchNorm_1/moving_mean"
  attr {
    key: "T"
    value {
      type: DT_FLOAT
    }
  }
  attr {
    key: "_class"
    value {
      list {
        s: "loc:@pvg_model/BatchNorm_1/moving_mean"
      }
    }
  }
}
node {
  name: "pvg_model/BatchNorm_1/moving_variance/Initializer/ones"
  op: "Const"
  attr {
    key: "_class"
    value {
      list {
        s: "loc:@pvg_model/BatchNorm_1/moving_variance"
      }
    }
  }
  attr {
    key: "dtype"
    value {
      type: DT_FLOAT
    }
  }
  attr {
    key: "value"
    value {
      tensor {
        dtype: DT_FLOAT
        tensor_shape {
          dim {
            size: 50
          }
        }
        float_val: 1.0
      }
    }
  }
}
node {
  name: "pvg_model/BatchNorm_1/moving_variance"
  op: "VariableV2"
  attr {
    key: "_class"
    value {
      list {
        s: "loc:@pvg_model/BatchNorm_1/moving_variance"
      }
    }
  }
  attr {
    key: "container"
    value {
      s: ""
    }
  }
  attr {
    key: "dtype"
    value {
      type: DT_FLOAT
    }
  }
  attr {
    key: "shape"
    value {
      shape {
        dim {
          size: 50
        }
      }
    }
  }
  attr {
    key: "shared_name"
    value {
      s: ""
    }
  }
}
node {
  name: "pvg_model/BatchNorm_1/moving_variance/Assign"
  op: "Assign"
  input: "pvg_model/BatchNorm_1/moving_variance"
  input: "pvg_model/BatchNorm_1/moving_variance/Initializer/ones"
  attr {
    key: "T"
    value {
      type: DT_FLOAT
    }
  }
  attr {
    key: "_class"
    value {
      list {
        s: "loc:@pvg_model/BatchNorm_1/moving_variance"
      }
    }
  }
  attr {
    key: "use_locking"
    value {
      b: true
    }
  }
  attr {
    key: "validate_shape"
    value {
      b: true
    }
  }
}
node {
  name: "pvg_model/BatchNorm_1/moving_variance/read"
  op: "Identity"
  input: "pvg_model/BatchNorm_1/moving_variance"
  attr {
    key: "T"
    value {
      type: DT_FLOAT
    }
  }
  attr {
    key: "_class"
    value {
      list {
        s: "loc:@pvg_model/BatchNorm_1/moving_variance"
      }
    }
  }
}
node {
  name: "pvg_model/BatchNorm_1/Const_1"
  op: "Const"
  attr {
    key: "dtype"
    value {
      type: DT_FLOAT
    }
  }
  attr {
    key: "value"
    value {
      tensor {
        dtype: DT_FLOAT
        tensor_shape {
          dim {
          }
        }
      }
    }
  }
}
node {
  name: "pvg_model/BatchNorm_1/Const_2"
  op: "Const"
  attr {
    key: "dtype"
    value {
      type: DT_FLOAT
    }
  }
  attr {
    key: "value"
    value {
      tensor {
        dtype: DT_FLOAT
        tensor_shape {
          dim {
          }
        }
      }
    }
  }
}
node {
  name: "pvg_model/BatchNorm_1/FusedBatchNorm"
  op: "FusedBatchNorm"
  input: "pvg_model/pool2/MaxPool"
  input: "pvg_model/BatchNorm_1/Const"
  input: "pvg_model/BatchNorm_1/beta/read"
  input: "pvg_model/BatchNorm_1/Const_1"
  input: "pvg_model/BatchNorm_1/Const_2"
  attr {
    key: "T"
    value {
      type: DT_FLOAT
    }
  }
  attr {
    key: "data_format"
    value {
      s: "NHWC"
    }
  }
  attr {
    key: "epsilon"
    value {
      f: 0.0010000000474974513
    }
  }
  attr {
    key: "is_training"
    value {
      b: true
    }
  }
}
node {
  name: "pvg_model/BatchNorm_1/Const_3"
  op: "Const"
  attr {
    key: "dtype"
    value {
      type: DT_FLOAT
    }
  }
  attr {
    key: "value"
    value {
      tensor {
        dtype: DT_FLOAT
        tensor_shape {
        }
        float_val: 0.0010000000474974513
      }
    }
  }
}
node {
  name: "pvg_model/BatchNorm_1/AssignMovingAvg/read"
  op: "Identity"
  input: "pvg_model/BatchNorm_1/moving_mean"
  attr {
    key: "T"
    value {
      type: DT_FLOAT
    }
  }
  attr {
    key: "_class"
    value {
      list {
        s: "loc:@pvg_model/BatchNorm_1/moving_mean"
      }
    }
  }
}
node {
  name: "pvg_model/BatchNorm_1/AssignMovingAvg/Sub"
  op: "Sub"
  input: "pvg_model/BatchNorm_1/AssignMovingAvg/read"
  input: "pvg_model/BatchNorm_1/FusedBatchNorm:1"
  attr {
    key: "T"
    value {
      type: DT_FLOAT
    }
  }
  attr {
    key: "_class"
    value {
      list {
        s: "loc:@pvg_model/BatchNorm_1/moving_mean"
      }
    }
  }
}
node {
  name: "pvg_model/BatchNorm_1/AssignMovingAvg/Mul"
  op: "Mul"
  input: "pvg_model/BatchNorm_1/AssignMovingAvg/Sub"
  input: "pvg_model/BatchNorm_1/Const_3"
  attr {
    key: "T"
    value {
      type: DT_FLOAT
    }
  }
  attr {
    key: "_class"
    value {
      list {
        s: "loc:@pvg_model/BatchNorm_1/moving_mean"
      }
    }
  }
}
node {
  name: "pvg_model/BatchNorm_1/AssignMovingAvg"
  op: "AssignSub"
  input: "pvg_model/BatchNorm_1/moving_mean"
  input: "pvg_model/BatchNorm_1/AssignMovingAvg/Mul"
  attr {
    key: "T"
    value {
      type: DT_FLOAT
    }
  }
  attr {
    key: "_class"
    value {
      list {
        s: "loc:@pvg_model/BatchNorm_1/moving_mean"
      }
    }
  }
  attr {
    key: "use_locking"
    value {
      b: false
    }
  }
}
node {
  name: "pvg_model/BatchNorm_1/AssignMovingAvg_1/read"
  op: "Identity"
  input: "pvg_model/BatchNorm_1/moving_variance"
  attr {
    key: "T"
    value {
      type: DT_FLOAT
    }
  }
  attr {
    key: "_class"
    value {
      list {
        s: "loc:@pvg_model/BatchNorm_1/moving_variance"
      }
    }
  }
}
node {
  name: "pvg_model/BatchNorm_1/AssignMovingAvg_1/Sub"
  op: "Sub"
  input: "pvg_model/BatchNorm_1/AssignMovingAvg_1/read"
  input: "pvg_model/BatchNorm_1/FusedBatchNorm:2"
  attr {
    key: "T"
    value {
      type: DT_FLOAT
    }
  }
  attr {
    key: "_class"
    value {
      list {
        s: "loc:@pvg_model/BatchNorm_1/moving_variance"
      }
    }
  }
}
node {
  name: "pvg_model/BatchNorm_1/AssignMovingAvg_1/Mul"
  op: "Mul"
  input: "pvg_model/BatchNorm_1/AssignMovingAvg_1/Sub"
  input: "pvg_model/BatchNorm_1/Const_3"
  attr {
    key: "T"
    value {
      type: DT_FLOAT
    }
  }
  attr {
    key: "_class"
    value {
      list {
        s: "loc:@pvg_model/BatchNorm_1/moving_variance"
      }
    }
  }
}
node {
  name: "pvg_model/BatchNorm_1/AssignMovingAvg_1"
  op: "AssignSub"
  input: "pvg_model/BatchNorm_1/moving_variance"
  input: "pvg_model/BatchNorm_1/AssignMovingAvg_1/Mul"
  attr {
    key: "T"
    value {
      type: DT_FLOAT
    }
  }
  attr {
    key: "_class"
    value {
      list {
        s: "loc:@pvg_model/BatchNorm_1/moving_variance"
      }
    }
  }
  attr {
    key: "use_locking"
    value {
      b: false
    }
  }
}
node {
  name: "pvg_model/conv3/weights/Initializer/truncated_normal/shape"
  op: "Const"
  attr {
    key: "_class"
    value {
      list {
        s: "loc:@pvg_model/conv3/weights"
      }
    }
  }
  attr {
    key: "dtype"
    value {
      type: DT_INT32
    }
  }
  attr {
    key: "value"
    value {
      tensor {
        dtype: DT_INT32
        tensor_shape {
          dim {
            size: 4
          }
        }
        tensor_content: "\005\000\000\000\005\000\000\0002\000\000\000d\000\000\000"
      }
    }
  }
}
node {
  name: "pvg_model/conv3/weights/Initializer/truncated_normal/mean"
  op: "Const"
  attr {
    key: "_class"
    value {
      list {
        s: "loc:@pvg_model/conv3/weights"
      }
    }
  }
  attr {
    key: "dtype"
    value {
      type: DT_FLOAT
    }
  }
  attr {
    key: "value"
    value {
      tensor {
        dtype: DT_FLOAT
        tensor_shape {
        }
        float_val: 0.0
      }
    }
  }
}
node {
  name: "pvg_model/conv3/weights/Initializer/truncated_normal/stddev"
  op: "Const"
  attr {
    key: "_class"
    value {
      list {
        s: "loc:@pvg_model/conv3/weights"
      }
    }
  }
  attr {
    key: "dtype"
    value {
      type: DT_FLOAT
    }
  }
  attr {
    key: "value"
    value {
      tensor {
        dtype: DT_FLOAT
        tensor_shape {
        }
        float_val: 0.04560701549053192
      }
    }
  }
}
node {
  name: "pvg_model/conv3/weights/Initializer/truncated_normal/TruncatedNormal"
  op: "TruncatedNormal"
  input: "pvg_model/conv3/weights/Initializer/truncated_normal/shape"
  attr {
    key: "T"
    value {
      type: DT_INT32
    }
  }
  attr {
    key: "_class"
    value {
      list {
        s: "loc:@pvg_model/conv3/weights"
      }
    }
  }
  attr {
    key: "dtype"
    value {
      type: DT_FLOAT
    }
  }
  attr {
    key: "seed"
    value {
      i: 0
    }
  }
  attr {
    key: "seed2"
    value {
      i: 0
    }
  }
}
node {
  name: "pvg_model/conv3/weights/Initializer/truncated_normal/mul"
  op: "Mul"
  input: "pvg_model/conv3/weights/Initializer/truncated_normal/TruncatedNormal"
  input: "pvg_model/conv3/weights/Initializer/truncated_normal/stddev"
  attr {
    key: "T"
    value {
      type: DT_FLOAT
    }
  }
  attr {
    key: "_class"
    value {
      list {
        s: "loc:@pvg_model/conv3/weights"
      }
    }
  }
}
node {
  name: "pvg_model/conv3/weights/Initializer/truncated_normal"
  op: "Add"
  input: "pvg_model/conv3/weights/Initializer/truncated_normal/mul"
  input: "pvg_model/conv3/weights/Initializer/truncated_normal/mean"
  attr {
    key: "T"
    value {
      type: DT_FLOAT
    }
  }
  attr {
    key: "_class"
    value {
      list {
        s: "loc:@pvg_model/conv3/weights"
      }
    }
  }
}
node {
  name: "pvg_model/conv3/weights"
  op: "VariableV2"
  attr {
    key: "_class"
    value {
      list {
        s: "loc:@pvg_model/conv3/weights"
      }
    }
  }
  attr {
    key: "container"
    value {
      s: ""
    }
  }
  attr {
    key: "dtype"
    value {
      type: DT_FLOAT
    }
  }
  attr {
    key: "shape"
    value {
      shape {
        dim {
          size: 5
        }
        dim {
          size: 5
        }
        dim {
          size: 50
        }
        dim {
          size: 100
        }
      }
    }
  }
  attr {
    key: "shared_name"
    value {
      s: ""
    }
  }
}
node {
  name: "pvg_model/conv3/weights/Assign"
  op: "Assign"
  input: "pvg_model/conv3/weights"
  input: "pvg_model/conv3/weights/Initializer/truncated_normal"
  attr {
    key: "T"
    value {
      type: DT_FLOAT
    }
  }
  attr {
    key: "_class"
    value {
      list {
        s: "loc:@pvg_model/conv3/weights"
      }
    }
  }
  attr {
    key: "use_locking"
    value {
      b: true
    }
  }
  attr {
    key: "validate_shape"
    value {
      b: true
    }
  }
}
node {
  name: "pvg_model/conv3/weights/read"
  op: "Identity"
  input: "pvg_model/conv3/weights"
  attr {
    key: "T"
    value {
      type: DT_FLOAT
    }
  }
  attr {
    key: "_class"
    value {
      list {
        s: "loc:@pvg_model/conv3/weights"
      }
    }
  }
}
node {
  name: "pvg_model/conv3/kernel/Regularizer/l2_regularizer/scale"
  op: "Const"
  attr {
    key: "_class"
    value {
      list {
        s: "loc:@pvg_model/conv3/weights"
      }
    }
  }
  attr {
    key: "dtype"
    value {
      type: DT_FLOAT
    }
  }
  attr {
    key: "value"
    value {
      tensor {
        dtype: DT_FLOAT
        tensor_shape {
        }
        float_val: 0.05000000074505806
      }
    }
  }
}
node {
  name: "pvg_model/conv3/kernel/Regularizer/l2_regularizer/L2Loss"
  op: "L2Loss"
  input: "pvg_model/conv3/weights/read"
  attr {
    key: "T"
    value {
      type: DT_FLOAT
    }
  }
  attr {
    key: "_class"
    value {
      list {
        s: "loc:@pvg_model/conv3/weights"
      }
    }
  }
}
node {
  name: "pvg_model/conv3/kernel/Regularizer/l2_regularizer"
  op: "Mul"
  input: "pvg_model/conv3/kernel/Regularizer/l2_regularizer/scale"
  input: "pvg_model/conv3/kernel/Regularizer/l2_regularizer/L2Loss"
  attr {
    key: "T"
    value {
      type: DT_FLOAT
    }
  }
  attr {
    key: "_class"
    value {
      list {
        s: "loc:@pvg_model/conv3/weights"
      }
    }
  }
}
node {
  name: "pvg_model/conv3/biases/Initializer/zeros"
  op: "Const"
  attr {
    key: "_class"
    value {
      list {
        s: "loc:@pvg_model/conv3/biases"
      }
    }
  }
  attr {
    key: "dtype"
    value {
      type: DT_FLOAT
    }
  }
  attr {
    key: "value"
    value {
      tensor {
        dtype: DT_FLOAT
        tensor_shape {
          dim {
            size: 100
          }
        }
        float_val: 0.0
      }
    }
  }
}
node {
  name: "pvg_model/conv3/biases"
  op: "VariableV2"
  attr {
    key: "_class"
    value {
      list {
        s: "loc:@pvg_model/conv3/biases"
      }
    }
  }
  attr {
    key: "container"
    value {
      s: ""
    }
  }
  attr {
    key: "dtype"
    value {
      type: DT_FLOAT
    }
  }
  attr {
    key: "shape"
    value {
      shape {
        dim {
          size: 100
        }
      }
    }
  }
  attr {
    key: "shared_name"
    value {
      s: ""
    }
  }
}
node {
  name: "pvg_model/conv3/biases/Assign"
  op: "Assign"
  input: "pvg_model/conv3/biases"
  input: "pvg_model/conv3/biases/Initializer/zeros"
  attr {
    key: "T"
    value {
      type: DT_FLOAT
    }
  }
  attr {
    key: "_class"
    value {
      list {
        s: "loc:@pvg_model/conv3/biases"
      }
    }
  }
  attr {
    key: "use_locking"
    value {
      b: true
    }
  }
  attr {
    key: "validate_shape"
    value {
      b: true
    }
  }
}
node {
  name: "pvg_model/conv3/biases/read"
  op: "Identity"
  input: "pvg_model/conv3/biases"
  attr {
    key: "T"
    value {
      type: DT_FLOAT
    }
  }
  attr {
    key: "_class"
    value {
      list {
        s: "loc:@pvg_model/conv3/biases"
      }
    }
  }
}
node {
  name: "pvg_model/conv3/dilation_rate"
  op: "Const"
  attr {
    key: "dtype"
    value {
      type: DT_INT32
    }
  }
  attr {
    key: "value"
    value {
      tensor {
        dtype: DT_INT32
        tensor_shape {
          dim {
            size: 2
          }
        }
        tensor_content: "\001\000\000\000\001\000\000\000"
      }
    }
  }
}
node {
  name: "pvg_model/conv3/Conv2D"
  op: "Conv2D"
  input: "pvg_model/BatchNorm_1/FusedBatchNorm"
  input: "pvg_model/conv3/weights/read"
  attr {
    key: "T"
    value {
      type: DT_FLOAT
    }
  }
  attr {
    key: "data_format"
    value {
      s: "NHWC"
    }
  }
  attr {
    key: "padding"
    value {
      s: "SAME"
    }
  }
  attr {
    key: "strides"
    value {
      list {
        i: 1
        i: 1
        i: 1
        i: 1
      }
    }
  }
  attr {
    key: "use_cudnn_on_gpu"
    value {
      b: true
    }
  }
}
node {
  name: "pvg_model/conv3/BiasAdd"
  op: "BiasAdd"
  input: "pvg_model/conv3/Conv2D"
  input: "pvg_model/conv3/biases/read"
  attr {
    key: "T"
    value {
      type: DT_FLOAT
    }
  }
  attr {
    key: "data_format"
    value {
      s: "NHWC"
    }
  }
}
node {
  name: "pvg_model/conv3/Relu"
  op: "Relu"
  input: "pvg_model/conv3/BiasAdd"
  attr {
    key: "T"
    value {
      type: DT_FLOAT
    }
  }
}
node {
  name: "pvg_model/pool3/MaxPool"
  op: "MaxPool"
  input: "pvg_model/conv3/Relu"
  attr {
    key: "T"
    value {
      type: DT_FLOAT
    }
  }
  attr {
    key: "data_format"
    value {
      s: "NHWC"
    }
  }
  attr {
    key: "ksize"
    value {
      list {
        i: 1
        i: 2
        i: 2
        i: 1
      }
    }
  }
  attr {
    key: "padding"
    value {
      s: "VALID"
    }
  }
  attr {
    key: "strides"
    value {
      list {
        i: 1
        i: 2
        i: 2
        i: 1
      }
    }
  }
}
node {
  name: "pvg_model/BatchNorm_2/Const"
  op: "Const"
  attr {
    key: "dtype"
    value {
      type: DT_FLOAT
    }
  }
  attr {
    key: "value"
    value {
      tensor {
        dtype: DT_FLOAT
        tensor_shape {
          dim {
            size: 100
          }
        }
        float_val: 1.0
      }
    }
  }
}
node {
  name: "pvg_model/BatchNorm_2/beta/Initializer/zeros"
  op: "Const"
  attr {
    key: "_class"
    value {
      list {
        s: "loc:@pvg_model/BatchNorm_2/beta"
      }
    }
  }
  attr {
    key: "dtype"
    value {
      type: DT_FLOAT
    }
  }
  attr {
    key: "value"
    value {
      tensor {
        dtype: DT_FLOAT
        tensor_shape {
          dim {
            size: 100
          }
        }
        float_val: 0.0
      }
    }
  }
}
node {
  name: "pvg_model/BatchNorm_2/beta"
  op: "VariableV2"
  attr {
    key: "_class"
    value {
      list {
        s: "loc:@pvg_model/BatchNorm_2/beta"
      }
    }
  }
  attr {
    key: "container"
    value {
      s: ""
    }
  }
  attr {
    key: "dtype"
    value {
      type: DT_FLOAT
    }
  }
  attr {
    key: "shape"
    value {
      shape {
        dim {
          size: 100
        }
      }
    }
  }
  attr {
    key: "shared_name"
    value {
      s: ""
    }
  }
}
node {
  name: "pvg_model/BatchNorm_2/beta/Assign"
  op: "Assign"
  input: "pvg_model/BatchNorm_2/beta"
  input: "pvg_model/BatchNorm_2/beta/Initializer/zeros"
  attr {
    key: "T"
    value {
      type: DT_FLOAT
    }
  }
  attr {
    key: "_class"
    value {
      list {
        s: "loc:@pvg_model/BatchNorm_2/beta"
      }
    }
  }
  attr {
    key: "use_locking"
    value {
      b: true
    }
  }
  attr {
    key: "validate_shape"
    value {
      b: true
    }
  }
}
node {
  name: "pvg_model/BatchNorm_2/beta/read"
  op: "Identity"
  input: "pvg_model/BatchNorm_2/beta"
  attr {
    key: "T"
    value {
      type: DT_FLOAT
    }
  }
  attr {
    key: "_class"
    value {
      list {
        s: "loc:@pvg_model/BatchNorm_2/beta"
      }
    }
  }
}
node {
  name: "pvg_model/BatchNorm_2/moving_mean/Initializer/zeros"
  op: "Const"
  attr {
    key: "_class"
    value {
      list {
        s: "loc:@pvg_model/BatchNorm_2/moving_mean"
      }
    }
  }
  attr {
    key: "dtype"
    value {
      type: DT_FLOAT
    }
  }
  attr {
    key: "value"
    value {
      tensor {
        dtype: DT_FLOAT
        tensor_shape {
          dim {
            size: 100
          }
        }
        float_val: 0.0
      }
    }
  }
}
node {
  name: "pvg_model/BatchNorm_2/moving_mean"
  op: "VariableV2"
  attr {
    key: "_class"
    value {
      list {
        s: "loc:@pvg_model/BatchNorm_2/moving_mean"
      }
    }
  }
  attr {
    key: "container"
    value {
      s: ""
    }
  }
  attr {
    key: "dtype"
    value {
      type: DT_FLOAT
    }
  }
  attr {
    key: "shape"
    value {
      shape {
        dim {
          size: 100
        }
      }
    }
  }
  attr {
    key: "shared_name"
    value {
      s: ""
    }
  }
}
node {
  name: "pvg_model/BatchNorm_2/moving_mean/Assign"
  op: "Assign"
  input: "pvg_model/BatchNorm_2/moving_mean"
  input: "pvg_model/BatchNorm_2/moving_mean/Initializer/zeros"
  attr {
    key: "T"
    value {
      type: DT_FLOAT
    }
  }
  attr {
    key: "_class"
    value {
      list {
        s: "loc:@pvg_model/BatchNorm_2/moving_mean"
      }
    }
  }
  attr {
    key: "use_locking"
    value {
      b: true
    }
  }
  attr {
    key: "validate_shape"
    value {
      b: true
    }
  }
}
node {
  name: "pvg_model/BatchNorm_2/moving_mean/read"
  op: "Identity"
  input: "pvg_model/BatchNorm_2/moving_mean"
  attr {
    key: "T"
    value {
      type: DT_FLOAT
    }
  }
  attr {
    key: "_class"
    value {
      list {
        s: "loc:@pvg_model/BatchNorm_2/moving_mean"
      }
    }
  }
}
node {
  name: "pvg_model/BatchNorm_2/moving_variance/Initializer/ones"
  op: "Const"
  attr {
    key: "_class"
    value {
      list {
        s: "loc:@pvg_model/BatchNorm_2/moving_variance"
      }
    }
  }
  attr {
    key: "dtype"
    value {
      type: DT_FLOAT
    }
  }
  attr {
    key: "value"
    value {
      tensor {
        dtype: DT_FLOAT
        tensor_shape {
          dim {
            size: 100
          }
        }
        float_val: 1.0
      }
    }
  }
}
node {
  name: "pvg_model/BatchNorm_2/moving_variance"
  op: "VariableV2"
  attr {
    key: "_class"
    value {
      list {
        s: "loc:@pvg_model/BatchNorm_2/moving_variance"
      }
    }
  }
  attr {
    key: "container"
    value {
      s: ""
    }
  }
  attr {
    key: "dtype"
    value {
      type: DT_FLOAT
    }
  }
  attr {
    key: "shape"
    value {
      shape {
        dim {
          size: 100
        }
      }
    }
  }
  attr {
    key: "shared_name"
    value {
      s: ""
    }
  }
}
node {
  name: "pvg_model/BatchNorm_2/moving_variance/Assign"
  op: "Assign"
  input: "pvg_model/BatchNorm_2/moving_variance"
  input: "pvg_model/BatchNorm_2/moving_variance/Initializer/ones"
  attr {
    key: "T"
    value {
      type: DT_FLOAT
    }
  }
  attr {
    key: "_class"
    value {
      list {
        s: "loc:@pvg_model/BatchNorm_2/moving_variance"
      }
    }
  }
  attr {
    key: "use_locking"
    value {
      b: true
    }
  }
  attr {
    key: "validate_shape"
    value {
      b: true
    }
  }
}
node {
  name: "pvg_model/BatchNorm_2/moving_variance/read"
  op: "Identity"
  input: "pvg_model/BatchNorm_2/moving_variance"
  attr {
    key: "T"
    value {
      type: DT_FLOAT
    }
  }
  attr {
    key: "_class"
    value {
      list {
        s: "loc:@pvg_model/BatchNorm_2/moving_variance"
      }
    }
  }
}
node {
  name: "pvg_model/BatchNorm_2/Const_1"
  op: "Const"
  attr {
    key: "dtype"
    value {
      type: DT_FLOAT
    }
  }
  attr {
    key: "value"
    value {
      tensor {
        dtype: DT_FLOAT
        tensor_shape {
          dim {
          }
        }
      }
    }
  }
}
node {
  name: "pvg_model/BatchNorm_2/Const_2"
  op: "Const"
  attr {
    key: "dtype"
    value {
      type: DT_FLOAT
    }
  }
  attr {
    key: "value"
    value {
      tensor {
        dtype: DT_FLOAT
        tensor_shape {
          dim {
          }
        }
      }
    }
  }
}
node {
  name: "pvg_model/BatchNorm_2/FusedBatchNorm"
  op: "FusedBatchNorm"
  input: "pvg_model/pool3/MaxPool"
  input: "pvg_model/BatchNorm_2/Const"
  input: "pvg_model/BatchNorm_2/beta/read"
  input: "pvg_model/BatchNorm_2/Const_1"
  input: "pvg_model/BatchNorm_2/Const_2"
  attr {
    key: "T"
    value {
      type: DT_FLOAT
    }
  }
  attr {
    key: "data_format"
    value {
      s: "NHWC"
    }
  }
  attr {
    key: "epsilon"
    value {
      f: 0.0010000000474974513
    }
  }
  attr {
    key: "is_training"
    value {
      b: true
    }
  }
}
node {
  name: "pvg_model/BatchNorm_2/Const_3"
  op: "Const"
  attr {
    key: "dtype"
    value {
      type: DT_FLOAT
    }
  }
  attr {
    key: "value"
    value {
      tensor {
        dtype: DT_FLOAT
        tensor_shape {
        }
        float_val: 0.0010000000474974513
      }
    }
  }
}
node {
  name: "pvg_model/BatchNorm_2/AssignMovingAvg/read"
  op: "Identity"
  input: "pvg_model/BatchNorm_2/moving_mean"
  attr {
    key: "T"
    value {
      type: DT_FLOAT
    }
  }
  attr {
    key: "_class"
    value {
      list {
        s: "loc:@pvg_model/BatchNorm_2/moving_mean"
      }
    }
  }
}
node {
  name: "pvg_model/BatchNorm_2/AssignMovingAvg/Sub"
  op: "Sub"
  input: "pvg_model/BatchNorm_2/AssignMovingAvg/read"
  input: "pvg_model/BatchNorm_2/FusedBatchNorm:1"
  attr {
    key: "T"
    value {
      type: DT_FLOAT
    }
  }
  attr {
    key: "_class"
    value {
      list {
        s: "loc:@pvg_model/BatchNorm_2/moving_mean"
      }
    }
  }
}
node {
  name: "pvg_model/BatchNorm_2/AssignMovingAvg/Mul"
  op: "Mul"
  input: "pvg_model/BatchNorm_2/AssignMovingAvg/Sub"
  input: "pvg_model/BatchNorm_2/Const_3"
  attr {
    key: "T"
    value {
      type: DT_FLOAT
    }
  }
  attr {
    key: "_class"
    value {
      list {
        s: "loc:@pvg_model/BatchNorm_2/moving_mean"
      }
    }
  }
}
node {
  name: "pvg_model/BatchNorm_2/AssignMovingAvg"
  op: "AssignSub"
  input: "pvg_model/BatchNorm_2/moving_mean"
  input: "pvg_model/BatchNorm_2/AssignMovingAvg/Mul"
  attr {
    key: "T"
    value {
      type: DT_FLOAT
    }
  }
  attr {
    key: "_class"
    value {
      list {
        s: "loc:@pvg_model/BatchNorm_2/moving_mean"
      }
    }
  }
  attr {
    key: "use_locking"
    value {
      b: false
    }
  }
}
node {
  name: "pvg_model/BatchNorm_2/AssignMovingAvg_1/read"
  op: "Identity"
  input: "pvg_model/BatchNorm_2/moving_variance"
  attr {
    key: "T"
    value {
      type: DT_FLOAT
    }
  }
  attr {
    key: "_class"
    value {
      list {
        s: "loc:@pvg_model/BatchNorm_2/moving_variance"
      }
    }
  }
}
node {
  name: "pvg_model/BatchNorm_2/AssignMovingAvg_1/Sub"
  op: "Sub"
  input: "pvg_model/BatchNorm_2/AssignMovingAvg_1/read"
  input: "pvg_model/BatchNorm_2/FusedBatchNorm:2"
  attr {
    key: "T"
    value {
      type: DT_FLOAT
    }
  }
  attr {
    key: "_class"
    value {
      list {
        s: "loc:@pvg_model/BatchNorm_2/moving_variance"
      }
    }
  }
}
node {
  name: "pvg_model/BatchNorm_2/AssignMovingAvg_1/Mul"
  op: "Mul"
  input: "pvg_model/BatchNorm_2/AssignMovingAvg_1/Sub"
  input: "pvg_model/BatchNorm_2/Const_3"
  attr {
    key: "T"
    value {
      type: DT_FLOAT
    }
  }
  attr {
    key: "_class"
    value {
      list {
        s: "loc:@pvg_model/BatchNorm_2/moving_variance"
      }
    }
  }
}
node {
  name: "pvg_model/BatchNorm_2/AssignMovingAvg_1"
  op: "AssignSub"
  input: "pvg_model/BatchNorm_2/moving_variance"
  input: "pvg_model/BatchNorm_2/AssignMovingAvg_1/Mul"
  attr {
    key: "T"
    value {
      type: DT_FLOAT
    }
  }
  attr {
    key: "_class"
    value {
      list {
        s: "loc:@pvg_model/BatchNorm_2/moving_variance"
      }
    }
  }
  attr {
    key: "use_locking"
    value {
      b: false
    }
  }
}
node {
  name: "pvg_model/flatten4/flatten/Shape"
  op: "Shape"
  input: "pvg_model/BatchNorm_2/FusedBatchNorm"
  attr {
    key: "T"
    value {
      type: DT_FLOAT
    }
  }
  attr {
    key: "out_type"
    value {
      type: DT_INT32
    }
  }
}
node {
  name: "pvg_model/flatten4/flatten/strided_slice/stack"
  op: "Const"
  attr {
    key: "dtype"
    value {
      type: DT_INT32
    }
  }
  attr {
    key: "value"
    value {
      tensor {
        dtype: DT_INT32
        tensor_shape {
          dim {
            size: 1
          }
        }
        int_val: 0
      }
    }
  }
}
node {
  name: "pvg_model/flatten4/flatten/strided_slice/stack_1"
  op: "Const"
  attr {
    key: "dtype"
    value {
      type: DT_INT32
    }
  }
  attr {
    key: "value"
    value {
      tensor {
        dtype: DT_INT32
        tensor_shape {
          dim {
            size: 1
          }
        }
        int_val: 1
      }
    }
  }
}
node {
  name: "pvg_model/flatten4/flatten/strided_slice/stack_2"
  op: "Const"
  attr {
    key: "dtype"
    value {
      type: DT_INT32
    }
  }
  attr {
    key: "value"
    value {
      tensor {
        dtype: DT_INT32
        tensor_shape {
          dim {
            size: 1
          }
        }
        int_val: 1
      }
    }
  }
}
node {
  name: "pvg_model/flatten4/flatten/strided_slice"
  op: "StridedSlice"
  input: "pvg_model/flatten4/flatten/Shape"
  input: "pvg_model/flatten4/flatten/strided_slice/stack"
  input: "pvg_model/flatten4/flatten/strided_slice/stack_1"
  input: "pvg_model/flatten4/flatten/strided_slice/stack_2"
  attr {
    key: "Index"
    value {
      type: DT_INT32
    }
  }
  attr {
    key: "T"
    value {
      type: DT_INT32
    }
  }
  attr {
    key: "begin_mask"
    value {
      i: 0
    }
  }
  attr {
    key: "ellipsis_mask"
    value {
      i: 0
    }
  }
  attr {
    key: "end_mask"
    value {
      i: 0
    }
  }
  attr {
    key: "new_axis_mask"
    value {
      i: 0
    }
  }
  attr {
    key: "shrink_axis_mask"
    value {
      i: 1
    }
  }
}
node {
  name: "pvg_model/flatten4/flatten/Reshape/shape/1"
  op: "Const"
  attr {
    key: "dtype"
    value {
      type: DT_INT32
    }
  }
  attr {
    key: "value"
    value {
      tensor {
        dtype: DT_INT32
        tensor_shape {
        }
        int_val: -1
      }
    }
  }
}
node {
  name: "pvg_model/flatten4/flatten/Reshape/shape"
  op: "Pack"
  input: "pvg_model/flatten4/flatten/strided_slice"
  input: "pvg_model/flatten4/flatten/Reshape/shape/1"
  attr {
    key: "N"
    value {
      i: 2
    }
  }
  attr {
    key: "T"
    value {
      type: DT_INT32
    }
  }
  attr {
    key: "axis"
    value {
      i: 0
    }
  }
}
node {
  name: "pvg_model/flatten4/flatten/Reshape"
  op: "Reshape"
  input: "pvg_model/BatchNorm_2/FusedBatchNorm"
  input: "pvg_model/flatten4/flatten/Reshape/shape"
  attr {
    key: "T"
    value {
      type: DT_FLOAT
    }
  }
  attr {
    key: "Tshape"
    value {
      type: DT_INT32
    }
  }
}
node {
  name: "pvg_model/fc5/weights/Initializer/truncated_normal/shape"
  op: "Const"
  attr {
    key: "_class"
    value {
      list {
        s: "loc:@pvg_model/fc5/weights"
      }
    }
  }
  attr {
    key: "dtype"
    value {
      type: DT_INT32
    }
  }
  attr {
    key: "value"
    value {
      tensor {
        dtype: DT_INT32
        tensor_shape {
          dim {
            size: 2
          }
        }
        tensor_content: "\204\003\000\000\364\001\000\000"
      }
    }
  }
}
node {
  name: "pvg_model/fc5/weights/Initializer/truncated_normal/mean"
  op: "Const"
  attr {
    key: "_class"
    value {
      list {
        s: "loc:@pvg_model/fc5/weights"
      }
    }
  }
  attr {
    key: "dtype"
    value {
      type: DT_FLOAT
    }
  }
  attr {
    key: "value"
    value {
      tensor {
        dtype: DT_FLOAT
        tensor_shape {
        }
        float_val: 0.0
      }
    }
  }
}
node {
  name: "pvg_model/fc5/weights/Initializer/truncated_normal/stddev"
  op: "Const"
  attr {
    key: "_class"
    value {
      list {
        s: "loc:@pvg_model/fc5/weights"
      }
    }
  }
  attr {
    key: "dtype"
    value {
      type: DT_FLOAT
    }
  }
  attr {
    key: "value"
    value {
      tensor {
        dtype: DT_FLOAT
        tensor_shape {
        }
        float_val: 0.05374838411808014
      }
    }
  }
}
node {
  name: "pvg_model/fc5/weights/Initializer/truncated_normal/TruncatedNormal"
  op: "TruncatedNormal"
  input: "pvg_model/fc5/weights/Initializer/truncated_normal/shape"
  attr {
    key: "T"
    value {
      type: DT_INT32
    }
  }
  attr {
    key: "_class"
    value {
      list {
        s: "loc:@pvg_model/fc5/weights"
      }
    }
  }
  attr {
    key: "dtype"
    value {
      type: DT_FLOAT
    }
  }
  attr {
    key: "seed"
    value {
      i: 0
    }
  }
  attr {
    key: "seed2"
    value {
      i: 0
    }
  }
}
node {
  name: "pvg_model/fc5/weights/Initializer/truncated_normal/mul"
  op: "Mul"
  input: "pvg_model/fc5/weights/Initializer/truncated_normal/TruncatedNormal"
  input: "pvg_model/fc5/weights/Initializer/truncated_normal/stddev"
  attr {
    key: "T"
    value {
      type: DT_FLOAT
    }
  }
  attr {
    key: "_class"
    value {
      list {
        s: "loc:@pvg_model/fc5/weights"
      }
    }
  }
}
node {
  name: "pvg_model/fc5/weights/Initializer/truncated_normal"
  op: "Add"
  input: "pvg_model/fc5/weights/Initializer/truncated_normal/mul"
  input: "pvg_model/fc5/weights/Initializer/truncated_normal/mean"
  attr {
    key: "T"
    value {
      type: DT_FLOAT
    }
  }
  attr {
    key: "_class"
    value {
      list {
        s: "loc:@pvg_model/fc5/weights"
      }
    }
  }
}
node {
  name: "pvg_model/fc5/weights"
  op: "VariableV2"
  attr {
    key: "_class"
    value {
      list {
        s: "loc:@pvg_model/fc5/weights"
      }
    }
  }
  attr {
    key: "container"
    value {
      s: ""
    }
  }
  attr {
    key: "dtype"
    value {
      type: DT_FLOAT
    }
  }
  attr {
    key: "shape"
    value {
      shape {
        dim {
          size: 900
        }
        dim {
          size: 500
        }
      }
    }
  }
  attr {
    key: "shared_name"
    value {
      s: ""
    }
  }
}
node {
  name: "pvg_model/fc5/weights/Assign"
  op: "Assign"
  input: "pvg_model/fc5/weights"
  input: "pvg_model/fc5/weights/Initializer/truncated_normal"
  attr {
    key: "T"
    value {
      type: DT_FLOAT
    }
  }
  attr {
    key: "_class"
    value {
      list {
        s: "loc:@pvg_model/fc5/weights"
      }
    }
  }
  attr {
    key: "use_locking"
    value {
      b: true
    }
  }
  attr {
    key: "validate_shape"
    value {
      b: true
    }
  }
}
node {
  name: "pvg_model/fc5/weights/read"
  op: "Identity"
  input: "pvg_model/fc5/weights"
  attr {
    key: "T"
    value {
      type: DT_FLOAT
    }
  }
  attr {
    key: "_class"
    value {
      list {
        s: "loc:@pvg_model/fc5/weights"
      }
    }
  }
}
node {
  name: "pvg_model/fc5/kernel/Regularizer/l2_regularizer/scale"
  op: "Const"
  attr {
    key: "_class"
    value {
      list {
        s: "loc:@pvg_model/fc5/weights"
      }
    }
  }
  attr {
    key: "dtype"
    value {
      type: DT_FLOAT
    }
  }
  attr {
    key: "value"
    value {
      tensor {
        dtype: DT_FLOAT
        tensor_shape {
        }
        float_val: 0.05000000074505806
      }
    }
  }
}
node {
  name: "pvg_model/fc5/kernel/Regularizer/l2_regularizer/L2Loss"
  op: "L2Loss"
  input: "pvg_model/fc5/weights/read"
  attr {
    key: "T"
    value {
      type: DT_FLOAT
    }
  }
  attr {
    key: "_class"
    value {
      list {
        s: "loc:@pvg_model/fc5/weights"
      }
    }
  }
}
node {
  name: "pvg_model/fc5/kernel/Regularizer/l2_regularizer"
  op: "Mul"
  input: "pvg_model/fc5/kernel/Regularizer/l2_regularizer/scale"
  input: "pvg_model/fc5/kernel/Regularizer/l2_regularizer/L2Loss"
  attr {
    key: "T"
    value {
      type: DT_FLOAT
    }
  }
  attr {
    key: "_class"
    value {
      list {
        s: "loc:@pvg_model/fc5/weights"
      }
    }
  }
}
node {
  name: "pvg_model/fc5/biases/Initializer/zeros"
  op: "Const"
  attr {
    key: "_class"
    value {
      list {
        s: "loc:@pvg_model/fc5/biases"
      }
    }
  }
  attr {
    key: "dtype"
    value {
      type: DT_FLOAT
    }
  }
  attr {
    key: "value"
    value {
      tensor {
        dtype: DT_FLOAT
        tensor_shape {
          dim {
            size: 500
          }
        }
        float_val: 0.0
      }
    }
  }
}
node {
  name: "pvg_model/fc5/biases"
  op: "VariableV2"
  attr {
    key: "_class"
    value {
      list {
        s: "loc:@pvg_model/fc5/biases"
      }
    }
  }
  attr {
    key: "container"
    value {
      s: ""
    }
  }
  attr {
    key: "dtype"
    value {
      type: DT_FLOAT
    }
  }
  attr {
    key: "shape"
    value {
      shape {
        dim {
          size: 500
        }
      }
    }
  }
  attr {
    key: "shared_name"
    value {
      s: ""
    }
  }
}
node {
  name: "pvg_model/fc5/biases/Assign"
  op: "Assign"
  input: "pvg_model/fc5/biases"
  input: "pvg_model/fc5/biases/Initializer/zeros"
  attr {
    key: "T"
    value {
      type: DT_FLOAT
    }
  }
  attr {
    key: "_class"
    value {
      list {
        s: "loc:@pvg_model/fc5/biases"
      }
    }
  }
  attr {
    key: "use_locking"
    value {
      b: true
    }
  }
  attr {
    key: "validate_shape"
    value {
      b: true
    }
  }
}
node {
  name: "pvg_model/fc5/biases/read"
  op: "Identity"
  input: "pvg_model/fc5/biases"
  attr {
    key: "T"
    value {
      type: DT_FLOAT
    }
  }
  attr {
    key: "_class"
    value {
      list {
        s: "loc:@pvg_model/fc5/biases"
      }
    }
  }
}
node {
  name: "pvg_model/fc5/MatMul"
  op: "MatMul"
  input: "pvg_model/flatten4/flatten/Reshape"
  input: "pvg_model/fc5/weights/read"
  attr {
    key: "T"
    value {
      type: DT_FLOAT
    }
  }
  attr {
    key: "transpose_a"
    value {
      b: false
    }
  }
  attr {
    key: "transpose_b"
    value {
      b: false
    }
  }
}
node {
  name: "pvg_model/fc5/BiasAdd"
  op: "BiasAdd"
  input: "pvg_model/fc5/MatMul"
  input: "pvg_model/fc5/biases/read"
  attr {
    key: "T"
    value {
      type: DT_FLOAT
    }
  }
  attr {
    key: "data_format"
    value {
      s: "NHWC"
    }
  }
}
node {
  name: "pvg_model/fc5/Sigmoid"
  op: "Sigmoid"
  input: "pvg_model/fc5/BiasAdd"
  attr {
    key: "T"
    value {
      type: DT_FLOAT
    }
  }
}
node {
  name: "pvg_model/dropout6/sub/x"
  op: "Const"
  attr {
    key: "dtype"
    value {
      type: DT_FLOAT
    }
  }
  attr {
    key: "value"
    value {
      tensor {
        dtype: DT_FLOAT
        tensor_shape {
        }
        float_val: 1.0
      }
    }
  }
}
node {
  name: "pvg_model/dropout6/sub"
  op: "Sub"
  input: "pvg_model/dropout6/sub/x"
  input: "keep_prob"
  attr {
    key: "T"
    value {
      type: DT_FLOAT
    }
  }
}
node {
  name: "pvg_model/dropout6/sub_1/x"
  op: "Const"
  attr {
    key: "dtype"
    value {
      type: DT_FLOAT
    }
  }
  attr {
    key: "value"
    value {
      tensor {
        dtype: DT_FLOAT
        tensor_shape {
        }
        float_val: 1.0
      }
    }
  }
}
node {
  name: "pvg_model/dropout6/sub_1"
  op: "Sub"
  input: "pvg_model/dropout6/sub_1/x"
  input: "pvg_model/dropout6/sub"
  attr {
    key: "T"
    value {
      type: DT_FLOAT
    }
  }
}
node {
  name: "pvg_model/dropout6/dropout/Shape"
  op: "Shape"
  input: "pvg_model/fc5/Sigmoid"
  attr {
    key: "T"
    value {
      type: DT_FLOAT
    }
  }
  attr {
    key: "out_type"
    value {
      type: DT_INT32
    }
  }
}
node {
  name: "pvg_model/dropout6/dropout/random_uniform/min"
  op: "Const"
  attr {
    key: "dtype"
    value {
      type: DT_FLOAT
    }
  }
  attr {
    key: "value"
    value {
      tensor {
        dtype: DT_FLOAT
        tensor_shape {
        }
        float_val: 0.0
      }
    }
  }
}
node {
  name: "pvg_model/dropout6/dropout/random_uniform/max"
  op: "Const"
  attr {
    key: "dtype"
    value {
      type: DT_FLOAT
    }
  }
  attr {
    key: "value"
    value {
      tensor {
        dtype: DT_FLOAT
        tensor_shape {
        }
        float_val: 1.0
      }
    }
  }
}
node {
  name: "pvg_model/dropout6/dropout/random_uniform/RandomUniform"
  op: "RandomUniform"
  input: "pvg_model/dropout6/dropout/Shape"
  attr {
    key: "T"
    value {
      type: DT_INT32
    }
  }
  attr {
    key: "dtype"
    value {
      type: DT_FLOAT
    }
  }
  attr {
    key: "seed"
    value {
      i: 0
    }
  }
  attr {
    key: "seed2"
    value {
      i: 0
    }
  }
}
node {
  name: "pvg_model/dropout6/dropout/random_uniform/sub"
  op: "Sub"
  input: "pvg_model/dropout6/dropout/random_uniform/max"
  input: "pvg_model/dropout6/dropout/random_uniform/min"
  attr {
    key: "T"
    value {
      type: DT_FLOAT
    }
  }
}
node {
  name: "pvg_model/dropout6/dropout/random_uniform/mul"
  op: "Mul"
  input: "pvg_model/dropout6/dropout/random_uniform/RandomUniform"
  input: "pvg_model/dropout6/dropout/random_uniform/sub"
  attr {
    key: "T"
    value {
      type: DT_FLOAT
    }
  }
}
node {
  name: "pvg_model/dropout6/dropout/random_uniform"
  op: "Add"
  input: "pvg_model/dropout6/dropout/random_uniform/mul"
  input: "pvg_model/dropout6/dropout/random_uniform/min"
  attr {
    key: "T"
    value {
      type: DT_FLOAT
    }
  }
}
node {
  name: "pvg_model/dropout6/dropout/add"
  op: "Add"
  input: "pvg_model/dropout6/sub_1"
  input: "pvg_model/dropout6/dropout/random_uniform"
  attr {
    key: "T"
    value {
      type: DT_FLOAT
    }
  }
}
node {
  name: "pvg_model/dropout6/dropout/Floor"
  op: "Floor"
  input: "pvg_model/dropout6/dropout/add"
  attr {
    key: "T"
    value {
      type: DT_FLOAT
    }
  }
}
node {
  name: "pvg_model/dropout6/dropout/div"
  op: "RealDiv"
  input: "pvg_model/fc5/Sigmoid"
  input: "pvg_model/dropout6/sub_1"
  attr {
    key: "T"
    value {
      type: DT_FLOAT
    }
  }
}
node {
  name: "pvg_model/dropout6/dropout/mul"
  op: "Mul"
  input: "pvg_model/dropout6/dropout/div"
  input: "pvg_model/dropout6/dropout/Floor"
  attr {
    key: "T"
    value {
      type: DT_FLOAT
    }
  }
}
node {
  name: "pvg_model/fc6/weights/Initializer/truncated_normal/shape"
  op: "Const"
  attr {
    key: "_class"
    value {
      list {
        s: "loc:@pvg_model/fc6/weights"
      }
    }
  }
  attr {
    key: "dtype"
    value {
      type: DT_INT32
    }
  }
  attr {
    key: "value"
    value {
      tensor {
        dtype: DT_INT32
        tensor_shape {
          dim {
            size: 2
          }
        }
        tensor_content: "\364\001\000\000\004\000\000\000"
      }
    }
  }
}
node {
  name: "pvg_model/fc6/weights/Initializer/truncated_normal/mean"
  op: "Const"
  attr {
    key: "_class"
    value {
      list {
        s: "loc:@pvg_model/fc6/weights"
      }
    }
  }
  attr {
    key: "dtype"
    value {
      type: DT_FLOAT
    }
  }
  attr {
    key: "value"
    value {
      tensor {
        dtype: DT_FLOAT
        tensor_shape {
        }
        float_val: 0.0
      }
    }
  }
}
node {
  name: "pvg_model/fc6/weights/Initializer/truncated_normal/stddev"
  op: "Const"
  attr {
    key: "_class"
    value {
      list {
        s: "loc:@pvg_model/fc6/weights"
      }
    }
  }
  attr {
    key: "dtype"
    value {
      type: DT_FLOAT
    }
  }
  attr {
    key: "value"
    value {
      tensor {
        dtype: DT_FLOAT
        tensor_shape {
        }
        float_val: 0.07211102545261383
      }
    }
  }
}
node {
  name: "pvg_model/fc6/weights/Initializer/truncated_normal/TruncatedNormal"
  op: "TruncatedNormal"
  input: "pvg_model/fc6/weights/Initializer/truncated_normal/shape"
  attr {
    key: "T"
    value {
      type: DT_INT32
    }
  }
  attr {
    key: "_class"
    value {
      list {
        s: "loc:@pvg_model/fc6/weights"
      }
    }
  }
  attr {
    key: "dtype"
    value {
      type: DT_FLOAT
    }
  }
  attr {
    key: "seed"
    value {
      i: 0
    }
  }
  attr {
    key: "seed2"
    value {
      i: 0
    }
  }
}
node {
  name: "pvg_model/fc6/weights/Initializer/truncated_normal/mul"
  op: "Mul"
  input: "pvg_model/fc6/weights/Initializer/truncated_normal/TruncatedNormal"
  input: "pvg_model/fc6/weights/Initializer/truncated_normal/stddev"
  attr {
    key: "T"
    value {
      type: DT_FLOAT
    }
  }
  attr {
    key: "_class"
    value {
      list {
        s: "loc:@pvg_model/fc6/weights"
      }
    }
  }
}
node {
  name: "pvg_model/fc6/weights/Initializer/truncated_normal"
  op: "Add"
  input: "pvg_model/fc6/weights/Initializer/truncated_normal/mul"
  input: "pvg_model/fc6/weights/Initializer/truncated_normal/mean"
  attr {
    key: "T"
    value {
      type: DT_FLOAT
    }
  }
  attr {
    key: "_class"
    value {
      list {
        s: "loc:@pvg_model/fc6/weights"
      }
    }
  }
}
node {
  name: "pvg_model/fc6/weights"
  op: "VariableV2"
  attr {
    key: "_class"
    value {
      list {
        s: "loc:@pvg_model/fc6/weights"
      }
    }
  }
  attr {
    key: "container"
    value {
      s: ""
    }
  }
  attr {
    key: "dtype"
    value {
      type: DT_FLOAT
    }
  }
  attr {
    key: "shape"
    value {
      shape {
        dim {
          size: 500
        }
        dim {
          size: 4
        }
      }
    }
  }
  attr {
    key: "shared_name"
    value {
      s: ""
    }
  }
}
node {
  name: "pvg_model/fc6/weights/Assign"
  op: "Assign"
  input: "pvg_model/fc6/weights"
  input: "pvg_model/fc6/weights/Initializer/truncated_normal"
  attr {
    key: "T"
    value {
      type: DT_FLOAT
    }
  }
  attr {
    key: "_class"
    value {
      list {
        s: "loc:@pvg_model/fc6/weights"
      }
    }
  }
  attr {
    key: "use_locking"
    value {
      b: true
    }
  }
  attr {
    key: "validate_shape"
    value {
      b: true
    }
  }
}
node {
  name: "pvg_model/fc6/weights/read"
  op: "Identity"
  input: "pvg_model/fc6/weights"
  attr {
    key: "T"
    value {
      type: DT_FLOAT
    }
  }
  attr {
    key: "_class"
    value {
      list {
        s: "loc:@pvg_model/fc6/weights"
      }
    }
  }
}
node {
  name: "pvg_model/fc6/kernel/Regularizer/l2_regularizer/scale"
  op: "Const"
  attr {
    key: "_class"
    value {
      list {
        s: "loc:@pvg_model/fc6/weights"
      }
    }
  }
  attr {
    key: "dtype"
    value {
      type: DT_FLOAT
    }
  }
  attr {
    key: "value"
    value {
      tensor {
        dtype: DT_FLOAT
        tensor_shape {
        }
        float_val: 0.05000000074505806
      }
    }
  }
}
node {
  name: "pvg_model/fc6/kernel/Regularizer/l2_regularizer/L2Loss"
  op: "L2Loss"
  input: "pvg_model/fc6/weights/read"
  attr {
    key: "T"
    value {
      type: DT_FLOAT
    }
  }
  attr {
    key: "_class"
    value {
      list {
        s: "loc:@pvg_model/fc6/weights"
      }
    }
  }
}
node {
  name: "pvg_model/fc6/kernel/Regularizer/l2_regularizer"
  op: "Mul"
  input: "pvg_model/fc6/kernel/Regularizer/l2_regularizer/scale"
  input: "pvg_model/fc6/kernel/Regularizer/l2_regularizer/L2Loss"
  attr {
    key: "T"
    value {
      type: DT_FLOAT
    }
  }
  attr {
    key: "_class"
    value {
      list {
        s: "loc:@pvg_model/fc6/weights"
      }
    }
  }
}
node {
  name: "pvg_model/fc6/biases/Initializer/zeros"
  op: "Const"
  attr {
    key: "_class"
    value {
      list {
        s: "loc:@pvg_model/fc6/biases"
      }
    }
  }
  attr {
    key: "dtype"
    value {
      type: DT_FLOAT
    }
  }
  attr {
    key: "value"
    value {
      tensor {
        dtype: DT_FLOAT
        tensor_shape {
          dim {
            size: 4
          }
        }
        float_val: 0.0
      }
    }
  }
}
node {
  name: "pvg_model/fc6/biases"
  op: "VariableV2"
  attr {
    key: "_class"
    value {
      list {
        s: "loc:@pvg_model/fc6/biases"
      }
    }
  }
  attr {
    key: "container"
    value {
      s: ""
    }
  }
  attr {
    key: "dtype"
    value {
      type: DT_FLOAT
    }
  }
  attr {
    key: "shape"
    value {
      shape {
        dim {
          size: 4
        }
      }
    }
  }
  attr {
    key: "shared_name"
    value {
      s: ""
    }
  }
}
node {
  name: "pvg_model/fc6/biases/Assign"
  op: "Assign"
  input: "pvg_model/fc6/biases"
  input: "pvg_model/fc6/biases/Initializer/zeros"
  attr {
    key: "T"
    value {
      type: DT_FLOAT
    }
  }
  attr {
    key: "_class"
    value {
      list {
        s: "loc:@pvg_model/fc6/biases"
      }
    }
  }
  attr {
    key: "use_locking"
    value {
      b: true
    }
  }
  attr {
    key: "validate_shape"
    value {
      b: true
    }
  }
}
node {
  name: "pvg_model/fc6/biases/read"
  op: "Identity"
  input: "pvg_model/fc6/biases"
  attr {
    key: "T"
    value {
      type: DT_FLOAT
    }
  }
  attr {
    key: "_class"
    value {
      list {
        s: "loc:@pvg_model/fc6/biases"
      }
    }
  }
}
node {
  name: "pvg_model/fc6/MatMul"
  op: "MatMul"
  input: "pvg_model/dropout6/dropout/mul"
  input: "pvg_model/fc6/weights/read"
  attr {
    key: "T"
    value {
      type: DT_FLOAT
    }
  }
  attr {
    key: "transpose_a"
    value {
      b: false
    }
  }
  attr {
    key: "transpose_b"
    value {
      b: false
    }
  }
}
node {
  name: "pvg_model/fc6/BiasAdd"
  op: "BiasAdd"
  input: "pvg_model/fc6/MatMul"
  input: "pvg_model/fc6/biases/read"
  attr {
    key: "T"
    value {
      type: DT_FLOAT
    }
  }
  attr {
    key: "data_format"
    value {
      s: "NHWC"
    }
  }
}
node {
  name: "pvg_model/fc6_1/weights/tag"
  op: "Const"
  attr {
    key: "dtype"
    value {
      type: DT_STRING
    }
  }
  attr {
    key: "value"
    value {
      tensor {
        dtype: DT_STRING
        tensor_shape {
        }
        string_val: "pvg_model/fc6_1/weights"
      }
    }
  }
}
node {
  name: "pvg_model/fc6_1/weights"
  op: "HistogramSummary"
  input: "pvg_model/fc6_1/weights/tag"
  input: "pvg_model/fc6/weights/read"
  attr {
    key: "T"
    value {
      type: DT_FLOAT
    }
  }
}
node {
  name: "pvg_model/fc6_1/bias/tag"
  op: "Const"
  attr {
    key: "dtype"
    value {
      type: DT_STRING
    }
  }
  attr {
    key: "value"
    value {
      tensor {
        dtype: DT_STRING
        tensor_shape {
        }
        string_val: "pvg_model/fc6_1/bias"
      }
    }
  }
}
node {
  name: "pvg_model/fc6_1/bias"
  op: "HistogramSummary"
  input: "pvg_model/fc6_1/bias/tag"
  input: "pvg_model/fc6/biases/read"
  attr {
    key: "T"
    value {
      type: DT_FLOAT
    }
  }
}
node {
  name: "pvg_model/fc6_1/output/tag"
  op: "Const"
  attr {
    key: "dtype"
    value {
      type: DT_STRING
    }
  }
  attr {
    key: "value"
    value {
      tensor {
        dtype: DT_STRING
        tensor_shape {
        }
        string_val: "pvg_model/fc6_1/output"
      }
    }
  }
}
node {
  name: "pvg_model/fc6_1/output"
  op: "HistogramSummary"
  input: "pvg_model/fc6_1/output/tag"
  input: "pvg_model/fc6/BiasAdd"
  attr {
    key: "T"
    value {
      type: DT_FLOAT
    }
  }
}
node {
  name: "output"
  op: "Identity"
  input: "pvg_model/fc6/BiasAdd"
  attr {
    key: "T"
    value {
      type: DT_FLOAT
    }
  }
}
node {
  name: "total_loss/SparseSoftmaxCrossEntropyWithLogits/Shape"
  op: "Shape"
  input: "Placeholder"
  attr {
    key: "T"
    value {
      type: DT_INT64
    }
  }
  attr {
    key: "out_type"
    value {
      type: DT_INT32
    }
  }
}
node {
  name: "total_loss/SparseSoftmaxCrossEntropyWithLogits/SparseSoftmaxCrossEntropyWithLogits"
  op: "SparseSoftmaxCrossEntropyWithLogits"
  input: "pvg_model/fc6/BiasAdd"
  input: "Placeholder"
  attr {
    key: "T"
    value {
      type: DT_FLOAT
    }
  }
  attr {
    key: "Tlabels"
    value {
      type: DT_INT64
    }
  }
}
node {
  name: "total_loss/Const"
  op: "Const"
  attr {
    key: "dtype"
    value {
      type: DT_INT32
    }
  }
  attr {
    key: "value"
    value {
      tensor {
        dtype: DT_INT32
        tensor_shape {
          dim {
            size: 1
          }
        }
        int_val: 0
      }
    }
  }
}
node {
  name: "total_loss/Mean"
  op: "Mean"
  input: "total_loss/SparseSoftmaxCrossEntropyWithLogits/SparseSoftmaxCrossEntropyWithLogits"
  input: "total_loss/Const"
  attr {
    key: "T"
    value {
      type: DT_FLOAT
    }
  }
  attr {
    key: "Tidx"
    value {
      type: DT_INT32
    }
  }
  attr {
    key: "keep_dims"
    value {
      b: false
    }
  }
}
node {
  name: "train_step/gradients/Shape"
  op: "Const"
  attr {
    key: "dtype"
    value {
      type: DT_INT32
    }
  }
  attr {
    key: "value"
    value {
      tensor {
        dtype: DT_INT32
        tensor_shape {
          dim {
          }
        }
      }
    }
  }
}
node {
  name: "train_step/gradients/Const"
  op: "Const"
  attr {
    key: "dtype"
    value {
      type: DT_FLOAT
    }
  }
  attr {
    key: "value"
    value {
      tensor {
        dtype: DT_FLOAT
        tensor_shape {
        }
        float_val: 1.0
      }
    }
  }
}
node {
  name: "train_step/gradients/Fill"
  op: "Fill"
  input: "train_step/gradients/Shape"
  input: "train_step/gradients/Const"
  attr {
    key: "T"
    value {
      type: DT_FLOAT
    }
  }
}
node {
  name: "train_step/gradients/total_loss/Mean_grad/Reshape/shape"
  op: "Const"
  attr {
    key: "dtype"
    value {
      type: DT_INT32
    }
  }
  attr {
    key: "value"
    value {
      tensor {
        dtype: DT_INT32
        tensor_shape {
          dim {
            size: 1
          }
        }
        int_val: 1
      }
    }
  }
}
node {
  name: "train_step/gradients/total_loss/Mean_grad/Reshape"
  op: "Reshape"
  input: "train_step/gradients/Fill"
  input: "train_step/gradients/total_loss/Mean_grad/Reshape/shape"
  attr {
    key: "T"
    value {
      type: DT_FLOAT
    }
  }
  attr {
    key: "Tshape"
    value {
      type: DT_INT32
    }
  }
}
node {
  name: "train_step/gradients/total_loss/Mean_grad/Shape"
  op: "Shape"
  input: "total_loss/SparseSoftmaxCrossEntropyWithLogits/SparseSoftmaxCrossEntropyWithLogits"
  attr {
    key: "T"
    value {
      type: DT_FLOAT
    }
  }
  attr {
    key: "out_type"
    value {
      type: DT_INT32
    }
  }
}
node {
  name: "train_step/gradients/total_loss/Mean_grad/Tile"
  op: "Tile"
  input: "train_step/gradients/total_loss/Mean_grad/Reshape"
  input: "train_step/gradients/total_loss/Mean_grad/Shape"
  attr {
    key: "T"
    value {
      type: DT_FLOAT
    }
  }
  attr {
    key: "Tmultiples"
    value {
      type: DT_INT32
    }
  }
}
node {
  name: "train_step/gradients/total_loss/Mean_grad/Shape_1"
  op: "Shape"
  input: "total_loss/SparseSoftmaxCrossEntropyWithLogits/SparseSoftmaxCrossEntropyWithLogits"
  attr {
    key: "T"
    value {
      type: DT_FLOAT
    }
  }
  attr {
    key: "out_type"
    value {
      type: DT_INT32
    }
  }
}
node {
  name: "train_step/gradients/total_loss/Mean_grad/Shape_2"
  op: "Const"
  attr {
    key: "dtype"
    value {
      type: DT_INT32
    }
  }
  attr {
    key: "value"
    value {
      tensor {
        dtype: DT_INT32
        tensor_shape {
          dim {
          }
        }
      }
    }
  }
}
node {
  name: "train_step/gradients/total_loss/Mean_grad/Const"
  op: "Const"
  attr {
    key: "_class"
    value {
      list {
        s: "loc:@train_step/gradients/total_loss/Mean_grad/Shape_1"
      }
    }
  }
  attr {
    key: "dtype"
    value {
      type: DT_INT32
    }
  }
  attr {
    key: "value"
    value {
      tensor {
        dtype: DT_INT32
        tensor_shape {
          dim {
            size: 1
          }
        }
        int_val: 0
      }
    }
  }
}
node {
  name: "train_step/gradients/total_loss/Mean_grad/Prod"
  op: "Prod"
  input: "train_step/gradients/total_loss/Mean_grad/Shape_1"
  input: "train_step/gradients/total_loss/Mean_grad/Const"
  attr {
    key: "T"
    value {
      type: DT_INT32
    }
  }
  attr {
    key: "Tidx"
    value {
      type: DT_INT32
    }
  }
  attr {
    key: "_class"
    value {
      list {
        s: "loc:@train_step/gradients/total_loss/Mean_grad/Shape_1"
      }
    }
  }
  attr {
    key: "keep_dims"
    value {
      b: false
    }
  }
}
node {
  name: "train_step/gradients/total_loss/Mean_grad/Const_1"
  op: "Const"
  attr {
    key: "_class"
    value {
      list {
        s: "loc:@train_step/gradients/total_loss/Mean_grad/Shape_1"
      }
    }
  }
  attr {
    key: "dtype"
    value {
      type: DT_INT32
    }
  }
  attr {
    key: "value"
    value {
      tensor {
        dtype: DT_INT32
        tensor_shape {
          dim {
            size: 1
          }
        }
        int_val: 0
      }
    }
  }
}
node {
  name: "train_step/gradients/total_loss/Mean_grad/Prod_1"
  op: "Prod"
  input: "train_step/gradients/total_loss/Mean_grad/Shape_2"
  input: "train_step/gradients/total_loss/Mean_grad/Const_1"
  attr {
    key: "T"
    value {
      type: DT_INT32
    }
  }
  attr {
    key: "Tidx"
    value {
      type: DT_INT32
    }
  }
  attr {
    key: "_class"
    value {
      list {
        s: "loc:@train_step/gradients/total_loss/Mean_grad/Shape_1"
      }
    }
  }
  attr {
    key: "keep_dims"
    value {
      b: false
    }
  }
}
node {
  name: "train_step/gradients/total_loss/Mean_grad/Maximum/y"
  op: "Const"
  attr {
    key: "_class"
    value {
      list {
        s: "loc:@train_step/gradients/total_loss/Mean_grad/Shape_1"
      }
    }
  }
  attr {
    key: "dtype"
    value {
      type: DT_INT32
    }
  }
  attr {
    key: "value"
    value {
      tensor {
        dtype: DT_INT32
        tensor_shape {
        }
        int_val: 1
      }
    }
  }
}
node {
  name: "train_step/gradients/total_loss/Mean_grad/Maximum"
  op: "Maximum"
  input: "train_step/gradients/total_loss/Mean_grad/Prod_1"
  input: "train_step/gradients/total_loss/Mean_grad/Maximum/y"
  attr {
    key: "T"
    value {
      type: DT_INT32
    }
  }
  attr {
    key: "_class"
    value {
      list {
        s: "loc:@train_step/gradients/total_loss/Mean_grad/Shape_1"
      }
    }
  }
}
node {
  name: "train_step/gradients/total_loss/Mean_grad/floordiv"
  op: "FloorDiv"
  input: "train_step/gradients/total_loss/Mean_grad/Prod"
  input: "train_step/gradients/total_loss/Mean_grad/Maximum"
  attr {
    key: "T"
    value {
      type: DT_INT32
    }
  }
  attr {
    key: "_class"
    value {
      list {
        s: "loc:@train_step/gradients/total_loss/Mean_grad/Shape_1"
      }
    }
  }
}
node {
  name: "train_step/gradients/total_loss/Mean_grad/Cast"
  op: "Cast"
  input: "train_step/gradients/total_loss/Mean_grad/floordiv"
  attr {
    key: "DstT"
    value {
      type: DT_FLOAT
    }
  }
  attr {
    key: "SrcT"
    value {
      type: DT_INT32
    }
  }
}
node {
  name: "train_step/gradients/total_loss/Mean_grad/truediv"
  op: "RealDiv"
  input: "train_step/gradients/total_loss/Mean_grad/Tile"
  input: "train_step/gradients/total_loss/Mean_grad/Cast"
  attr {
    key: "T"
    value {
      type: DT_FLOAT
    }
  }
}
node {
  name: "train_step/gradients/zeros_like"
  op: "ZerosLike"
  input: "total_loss/SparseSoftmaxCrossEntropyWithLogits/SparseSoftmaxCrossEntropyWithLogits:1"
  attr {
    key: "T"
    value {
      type: DT_FLOAT
    }
  }
}
node {
  name: "train_step/gradients/total_loss/SparseSoftmaxCrossEntropyWithLogits/SparseSoftmaxCrossEntropyWithLogits_grad/PreventGradient"
  op: "PreventGradient"
  input: "total_loss/SparseSoftmaxCrossEntropyWithLogits/SparseSoftmaxCrossEntropyWithLogits:1"
  attr {
    key: "T"
    value {
      type: DT_FLOAT
    }
  }
  attr {
    key: "message"
    value {
      s: "Currently there is no way to take the second derivative of sparse_softmax_cross_entropy_with_logits due to the fused implementation\'s interaction with tf.gradients()"
    }
  }
}
node {
  name: "train_step/gradients/total_loss/SparseSoftmaxCrossEntropyWithLogits/SparseSoftmaxCrossEntropyWithLogits_grad/ExpandDims/dim"
  op: "Const"
  attr {
    key: "dtype"
    value {
      type: DT_INT32
    }
  }
  attr {
    key: "value"
    value {
      tensor {
        dtype: DT_INT32
        tensor_shape {
        }
        int_val: -1
      }
    }
  }
}
node {
  name: "train_step/gradients/total_loss/SparseSoftmaxCrossEntropyWithLogits/SparseSoftmaxCrossEntropyWithLogits_grad/ExpandDims"
  op: "ExpandDims"
  input: "train_step/gradients/total_loss/Mean_grad/truediv"
  input: "train_step/gradients/total_loss/SparseSoftmaxCrossEntropyWithLogits/SparseSoftmaxCrossEntropyWithLogits_grad/ExpandDims/dim"
  attr {
    key: "T"
    value {
      type: DT_FLOAT
    }
  }
  attr {
    key: "Tdim"
    value {
      type: DT_INT32
    }
  }
}
node {
  name: "train_step/gradients/total_loss/SparseSoftmaxCrossEntropyWithLogits/SparseSoftmaxCrossEntropyWithLogits_grad/mul"
  op: "Mul"
  input: "train_step/gradients/total_loss/SparseSoftmaxCrossEntropyWithLogits/SparseSoftmaxCrossEntropyWithLogits_grad/ExpandDims"
  input: "train_step/gradients/total_loss/SparseSoftmaxCrossEntropyWithLogits/SparseSoftmaxCrossEntropyWithLogits_grad/PreventGradient"
  attr {
    key: "T"
    value {
      type: DT_FLOAT
    }
  }
}
node {
  name: "train_step/gradients/pvg_model/fc6/BiasAdd_grad/BiasAddGrad"
  op: "BiasAddGrad"
  input: "train_step/gradients/total_loss/SparseSoftmaxCrossEntropyWithLogits/SparseSoftmaxCrossEntropyWithLogits_grad/mul"
  attr {
    key: "T"
    value {
      type: DT_FLOAT
    }
  }
  attr {
    key: "data_format"
    value {
      s: "NHWC"
    }
  }
}
node {
  name: "train_step/gradients/pvg_model/fc6/BiasAdd_grad/tuple/group_deps"
  op: "NoOp"
  input: "^train_step/gradients/total_loss/SparseSoftmaxCrossEntropyWithLogits/SparseSoftmaxCrossEntropyWithLogits_grad/mul"
  input: "^train_step/gradients/pvg_model/fc6/BiasAdd_grad/BiasAddGrad"
}
node {
  name: "train_step/gradients/pvg_model/fc6/BiasAdd_grad/tuple/control_dependency"
  op: "Identity"
  input: "train_step/gradients/total_loss/SparseSoftmaxCrossEntropyWithLogits/SparseSoftmaxCrossEntropyWithLogits_grad/mul"
  input: "^train_step/gradients/pvg_model/fc6/BiasAdd_grad/tuple/group_deps"
  attr {
    key: "T"
    value {
      type: DT_FLOAT
    }
  }
  attr {
    key: "_class"
    value {
      list {
        s: "loc:@train_step/gradients/total_loss/SparseSoftmaxCrossEntropyWithLogits/SparseSoftmaxCrossEntropyWithLogits_grad/mul"
      }
    }
  }
}
node {
  name: "train_step/gradients/pvg_model/fc6/BiasAdd_grad/tuple/control_dependency_1"
  op: "Identity"
  input: "train_step/gradients/pvg_model/fc6/BiasAdd_grad/BiasAddGrad"
  input: "^train_step/gradients/pvg_model/fc6/BiasAdd_grad/tuple/group_deps"
  attr {
    key: "T"
    value {
      type: DT_FLOAT
    }
  }
  attr {
    key: "_class"
    value {
      list {
        s: "loc:@train_step/gradients/pvg_model/fc6/BiasAdd_grad/BiasAddGrad"
      }
    }
  }
}
node {
  name: "train_step/gradients/pvg_model/fc6/MatMul_grad/MatMul"
  op: "MatMul"
  input: "train_step/gradients/pvg_model/fc6/BiasAdd_grad/tuple/control_dependency"
  input: "pvg_model/fc6/weights/read"
  attr {
    key: "T"
    value {
      type: DT_FLOAT
    }
  }
  attr {
    key: "transpose_a"
    value {
      b: false
    }
  }
  attr {
    key: "transpose_b"
    value {
      b: true
    }
  }
}
node {
  name: "train_step/gradients/pvg_model/fc6/MatMul_grad/MatMul_1"
  op: "MatMul"
  input: "pvg_model/dropout6/dropout/mul"
  input: "train_step/gradients/pvg_model/fc6/BiasAdd_grad/tuple/control_dependency"
  attr {
    key: "T"
    value {
      type: DT_FLOAT
    }
  }
  attr {
    key: "transpose_a"
    value {
      b: true
    }
  }
  attr {
    key: "transpose_b"
    value {
      b: false
    }
  }
}
node {
  name: "train_step/gradients/pvg_model/fc6/MatMul_grad/tuple/group_deps"
  op: "NoOp"
  input: "^train_step/gradients/pvg_model/fc6/MatMul_grad/MatMul"
  input: "^train_step/gradients/pvg_model/fc6/MatMul_grad/MatMul_1"
}
node {
  name: "train_step/gradients/pvg_model/fc6/MatMul_grad/tuple/control_dependency"
  op: "Identity"
  input: "train_step/gradients/pvg_model/fc6/MatMul_grad/MatMul"
  input: "^train_step/gradients/pvg_model/fc6/MatMul_grad/tuple/group_deps"
  attr {
    key: "T"
    value {
      type: DT_FLOAT
    }
  }
  attr {
    key: "_class"
    value {
      list {
        s: "loc:@train_step/gradients/pvg_model/fc6/MatMul_grad/MatMul"
      }
    }
  }
}
node {
  name: "train_step/gradients/pvg_model/fc6/MatMul_grad/tuple/control_dependency_1"
  op: "Identity"
  input: "train_step/gradients/pvg_model/fc6/MatMul_grad/MatMul_1"
  input: "^train_step/gradients/pvg_model/fc6/MatMul_grad/tuple/group_deps"
  attr {
    key: "T"
    value {
      type: DT_FLOAT
    }
  }
  attr {
    key: "_class"
    value {
      list {
        s: "loc:@train_step/gradients/pvg_model/fc6/MatMul_grad/MatMul_1"
      }
    }
  }
}
node {
  name: "train_step/gradients/pvg_model/dropout6/dropout/mul_grad/Shape"
  op: "Shape"
  input: "pvg_model/dropout6/dropout/div"
  attr {
    key: "T"
    value {
      type: DT_FLOAT
    }
  }
  attr {
    key: "out_type"
    value {
      type: DT_INT32
    }
  }
}
node {
  name: "train_step/gradients/pvg_model/dropout6/dropout/mul_grad/Shape_1"
  op: "Shape"
  input: "pvg_model/dropout6/dropout/Floor"
  attr {
    key: "T"
    value {
      type: DT_FLOAT
    }
  }
  attr {
    key: "out_type"
    value {
      type: DT_INT32
    }
  }
}
node {
  name: "train_step/gradients/pvg_model/dropout6/dropout/mul_grad/BroadcastGradientArgs"
  op: "BroadcastGradientArgs"
  input: "train_step/gradients/pvg_model/dropout6/dropout/mul_grad/Shape"
  input: "train_step/gradients/pvg_model/dropout6/dropout/mul_grad/Shape_1"
  attr {
    key: "T"
    value {
      type: DT_INT32
    }
  }
}
node {
  name: "train_step/gradients/pvg_model/dropout6/dropout/mul_grad/mul"
  op: "Mul"
  input: "train_step/gradients/pvg_model/fc6/MatMul_grad/tuple/control_dependency"
  input: "pvg_model/dropout6/dropout/Floor"
  attr {
    key: "T"
    value {
      type: DT_FLOAT
    }
  }
}
node {
  name: "train_step/gradients/pvg_model/dropout6/dropout/mul_grad/Sum"
  op: "Sum"
  input: "train_step/gradients/pvg_model/dropout6/dropout/mul_grad/mul"
  input: "train_step/gradients/pvg_model/dropout6/dropout/mul_grad/BroadcastGradientArgs"
  attr {
    key: "T"
    value {
      type: DT_FLOAT
    }
  }
  attr {
    key: "Tidx"
    value {
      type: DT_INT32
    }
  }
  attr {
    key: "keep_dims"
    value {
      b: false
    }
  }
}
node {
  name: "train_step/gradients/pvg_model/dropout6/dropout/mul_grad/Reshape"
  op: "Reshape"
  input: "train_step/gradients/pvg_model/dropout6/dropout/mul_grad/Sum"
  input: "train_step/gradients/pvg_model/dropout6/dropout/mul_grad/Shape"
  attr {
    key: "T"
    value {
      type: DT_FLOAT
    }
  }
  attr {
    key: "Tshape"
    value {
      type: DT_INT32
    }
  }
}
node {
  name: "train_step/gradients/pvg_model/dropout6/dropout/mul_grad/mul_1"
  op: "Mul"
  input: "pvg_model/dropout6/dropout/div"
  input: "train_step/gradients/pvg_model/fc6/MatMul_grad/tuple/control_dependency"
  attr {
    key: "T"
    value {
      type: DT_FLOAT
    }
  }
}
node {
  name: "train_step/gradients/pvg_model/dropout6/dropout/mul_grad/Sum_1"
  op: "Sum"
  input: "train_step/gradients/pvg_model/dropout6/dropout/mul_grad/mul_1"
  input: "train_step/gradients/pvg_model/dropout6/dropout/mul_grad/BroadcastGradientArgs:1"
  attr {
    key: "T"
    value {
      type: DT_FLOAT
    }
  }
  attr {
    key: "Tidx"
    value {
      type: DT_INT32
    }
  }
  attr {
    key: "keep_dims"
    value {
      b: false
    }
  }
}
node {
  name: "train_step/gradients/pvg_model/dropout6/dropout/mul_grad/Reshape_1"
  op: "Reshape"
  input: "train_step/gradients/pvg_model/dropout6/dropout/mul_grad/Sum_1"
  input: "train_step/gradients/pvg_model/dropout6/dropout/mul_grad/Shape_1"
  attr {
    key: "T"
    value {
      type: DT_FLOAT
    }
  }
  attr {
    key: "Tshape"
    value {
      type: DT_INT32
    }
  }
}
node {
  name: "train_step/gradients/pvg_model/dropout6/dropout/mul_grad/tuple/group_deps"
  op: "NoOp"
  input: "^train_step/gradients/pvg_model/dropout6/dropout/mul_grad/Reshape"
  input: "^train_step/gradients/pvg_model/dropout6/dropout/mul_grad/Reshape_1"
}
node {
  name: "train_step/gradients/pvg_model/dropout6/dropout/mul_grad/tuple/control_dependency"
  op: "Identity"
  input: "train_step/gradients/pvg_model/dropout6/dropout/mul_grad/Reshape"
  input: "^train_step/gradients/pvg_model/dropout6/dropout/mul_grad/tuple/group_deps"
  attr {
    key: "T"
    value {
      type: DT_FLOAT
    }
  }
  attr {
    key: "_class"
    value {
      list {
        s: "loc:@train_step/gradients/pvg_model/dropout6/dropout/mul_grad/Reshape"
      }
    }
  }
}
node {
  name: "train_step/gradients/pvg_model/dropout6/dropout/mul_grad/tuple/control_dependency_1"
  op: "Identity"
  input: "train_step/gradients/pvg_model/dropout6/dropout/mul_grad/Reshape_1"
  input: "^train_step/gradients/pvg_model/dropout6/dropout/mul_grad/tuple/group_deps"
  attr {
    key: "T"
    value {
      type: DT_FLOAT
    }
  }
  attr {
    key: "_class"
    value {
      list {
        s: "loc:@train_step/gradients/pvg_model/dropout6/dropout/mul_grad/Reshape_1"
      }
    }
  }
}
node {
  name: "train_step/gradients/pvg_model/dropout6/dropout/div_grad/Shape"
  op: "Shape"
  input: "pvg_model/fc5/Sigmoid"
  attr {
    key: "T"
    value {
      type: DT_FLOAT
    }
  }
  attr {
    key: "out_type"
    value {
      type: DT_INT32
    }
  }
}
node {
  name: "train_step/gradients/pvg_model/dropout6/dropout/div_grad/Shape_1"
  op: "Const"
  attr {
    key: "dtype"
    value {
      type: DT_INT32
    }
  }
  attr {
    key: "value"
    value {
      tensor {
        dtype: DT_INT32
        tensor_shape {
          dim {
          }
        }
      }
    }
  }
}
node {
  name: "train_step/gradients/pvg_model/dropout6/dropout/div_grad/BroadcastGradientArgs"
  op: "BroadcastGradientArgs"
  input: "train_step/gradients/pvg_model/dropout6/dropout/div_grad/Shape"
  input: "train_step/gradients/pvg_model/dropout6/dropout/div_grad/Shape_1"
  attr {
    key: "T"
    value {
      type: DT_INT32
    }
  }
}
node {
  name: "train_step/gradients/pvg_model/dropout6/dropout/div_grad/RealDiv"
  op: "RealDiv"
  input: "train_step/gradients/pvg_model/dropout6/dropout/mul_grad/tuple/control_dependency"
  input: "pvg_model/dropout6/sub_1"
  attr {
    key: "T"
    value {
      type: DT_FLOAT
    }
  }
}
node {
  name: "train_step/gradients/pvg_model/dropout6/dropout/div_grad/Sum"
  op: "Sum"
  input: "train_step/gradients/pvg_model/dropout6/dropout/div_grad/RealDiv"
  input: "train_step/gradients/pvg_model/dropout6/dropout/div_grad/BroadcastGradientArgs"
  attr {
    key: "T"
    value {
      type: DT_FLOAT
    }
  }
  attr {
    key: "Tidx"
    value {
      type: DT_INT32
    }
  }
  attr {
    key: "keep_dims"
    value {
      b: false
    }
  }
}
node {
  name: "train_step/gradients/pvg_model/dropout6/dropout/div_grad/Reshape"
  op: "Reshape"
  input: "train_step/gradients/pvg_model/dropout6/dropout/div_grad/Sum"
  input: "train_step/gradients/pvg_model/dropout6/dropout/div_grad/Shape"
  attr {
    key: "T"
    value {
      type: DT_FLOAT
    }
  }
  attr {
    key: "Tshape"
    value {
      type: DT_INT32
    }
  }
}
node {
  name: "train_step/gradients/pvg_model/dropout6/dropout/div_grad/Neg"
  op: "Neg"
  input: "pvg_model/fc5/Sigmoid"
  attr {
    key: "T"
    value {
      type: DT_FLOAT
    }
  }
}
node {
  name: "train_step/gradients/pvg_model/dropout6/dropout/div_grad/RealDiv_1"
  op: "RealDiv"
  input: "train_step/gradients/pvg_model/dropout6/dropout/div_grad/Neg"
  input: "pvg_model/dropout6/sub_1"
  attr {
    key: "T"
    value {
      type: DT_FLOAT
    }
  }
}
node {
  name: "train_step/gradients/pvg_model/dropout6/dropout/div_grad/RealDiv_2"
  op: "RealDiv"
  input: "train_step/gradients/pvg_model/dropout6/dropout/div_grad/RealDiv_1"
  input: "pvg_model/dropout6/sub_1"
  attr {
    key: "T"
    value {
      type: DT_FLOAT
    }
  }
}
node {
  name: "train_step/gradients/pvg_model/dropout6/dropout/div_grad/mul"
  op: "Mul"
  input: "train_step/gradients/pvg_model/dropout6/dropout/mul_grad/tuple/control_dependency"
  input: "train_step/gradients/pvg_model/dropout6/dropout/div_grad/RealDiv_2"
  attr {
    key: "T"
    value {
      type: DT_FLOAT
    }
  }
}
node {
  name: "train_step/gradients/pvg_model/dropout6/dropout/div_grad/Sum_1"
  op: "Sum"
  input: "train_step/gradients/pvg_model/dropout6/dropout/div_grad/mul"
  input: "train_step/gradients/pvg_model/dropout6/dropout/div_grad/BroadcastGradientArgs:1"
  attr {
    key: "T"
    value {
      type: DT_FLOAT
    }
  }
  attr {
    key: "Tidx"
    value {
      type: DT_INT32
    }
  }
  attr {
    key: "keep_dims"
    value {
      b: false
    }
  }
}
node {
  name: "train_step/gradients/pvg_model/dropout6/dropout/div_grad/Reshape_1"
  op: "Reshape"
  input: "train_step/gradients/pvg_model/dropout6/dropout/div_grad/Sum_1"
  input: "train_step/gradients/pvg_model/dropout6/dropout/div_grad/Shape_1"
  attr {
    key: "T"
    value {
      type: DT_FLOAT
    }
  }
  attr {
    key: "Tshape"
    value {
      type: DT_INT32
    }
  }
}
node {
  name: "train_step/gradients/pvg_model/dropout6/dropout/div_grad/tuple/group_deps"
  op: "NoOp"
  input: "^train_step/gradients/pvg_model/dropout6/dropout/div_grad/Reshape"
  input: "^train_step/gradients/pvg_model/dropout6/dropout/div_grad/Reshape_1"
}
node {
  name: "train_step/gradients/pvg_model/dropout6/dropout/div_grad/tuple/control_dependency"
  op: "Identity"
  input: "train_step/gradients/pvg_model/dropout6/dropout/div_grad/Reshape"
  input: "^train_step/gradients/pvg_model/dropout6/dropout/div_grad/tuple/group_deps"
  attr {
    key: "T"
    value {
      type: DT_FLOAT
    }
  }
  attr {
    key: "_class"
    value {
      list {
        s: "loc:@train_step/gradients/pvg_model/dropout6/dropout/div_grad/Reshape"
      }
    }
  }
}
node {
  name: "train_step/gradients/pvg_model/dropout6/dropout/div_grad/tuple/control_dependency_1"
  op: "Identity"
  input: "train_step/gradients/pvg_model/dropout6/dropout/div_grad/Reshape_1"
  input: "^train_step/gradients/pvg_model/dropout6/dropout/div_grad/tuple/group_deps"
  attr {
    key: "T"
    value {
      type: DT_FLOAT
    }
  }
  attr {
    key: "_class"
    value {
      list {
        s: "loc:@train_step/gradients/pvg_model/dropout6/dropout/div_grad/Reshape_1"
      }
    }
  }
}
node {
  name: "train_step/gradients/pvg_model/fc5/Sigmoid_grad/SigmoidGrad"
  op: "SigmoidGrad"
  input: "pvg_model/fc5/Sigmoid"
  input: "train_step/gradients/pvg_model/dropout6/dropout/div_grad/tuple/control_dependency"
  attr {
    key: "T"
    value {
      type: DT_FLOAT
    }
  }
}
node {
  name: "train_step/gradients/pvg_model/fc5/BiasAdd_grad/BiasAddGrad"
  op: "BiasAddGrad"
  input: "train_step/gradients/pvg_model/fc5/Sigmoid_grad/SigmoidGrad"
  attr {
    key: "T"
    value {
      type: DT_FLOAT
    }
  }
  attr {
    key: "data_format"
    value {
      s: "NHWC"
    }
  }
}
node {
  name: "train_step/gradients/pvg_model/fc5/BiasAdd_grad/tuple/group_deps"
  op: "NoOp"
  input: "^train_step/gradients/pvg_model/fc5/Sigmoid_grad/SigmoidGrad"
  input: "^train_step/gradients/pvg_model/fc5/BiasAdd_grad/BiasAddGrad"
}
node {
  name: "train_step/gradients/pvg_model/fc5/BiasAdd_grad/tuple/control_dependency"
  op: "Identity"
  input: "train_step/gradients/pvg_model/fc5/Sigmoid_grad/SigmoidGrad"
  input: "^train_step/gradients/pvg_model/fc5/BiasAdd_grad/tuple/group_deps"
  attr {
    key: "T"
    value {
      type: DT_FLOAT
    }
  }
  attr {
    key: "_class"
    value {
      list {
        s: "loc:@train_step/gradients/pvg_model/fc5/Sigmoid_grad/SigmoidGrad"
      }
    }
  }
}
node {
  name: "train_step/gradients/pvg_model/fc5/BiasAdd_grad/tuple/control_dependency_1"
  op: "Identity"
  input: "train_step/gradients/pvg_model/fc5/BiasAdd_grad/BiasAddGrad"
  input: "^train_step/gradients/pvg_model/fc5/BiasAdd_grad/tuple/group_deps"
  attr {
    key: "T"
    value {
      type: DT_FLOAT
    }
  }
  attr {
    key: "_class"
    value {
      list {
        s: "loc:@train_step/gradients/pvg_model/fc5/BiasAdd_grad/BiasAddGrad"
      }
    }
  }
}
node {
  name: "train_step/gradients/pvg_model/fc5/MatMul_grad/MatMul"
  op: "MatMul"
  input: "train_step/gradients/pvg_model/fc5/BiasAdd_grad/tuple/control_dependency"
  input: "pvg_model/fc5/weights/read"
  attr {
    key: "T"
    value {
      type: DT_FLOAT
    }
  }
  attr {
    key: "transpose_a"
    value {
      b: false
    }
  }
  attr {
    key: "transpose_b"
    value {
      b: true
    }
  }
}
node {
  name: "train_step/gradients/pvg_model/fc5/MatMul_grad/MatMul_1"
  op: "MatMul"
  input: "pvg_model/flatten4/flatten/Reshape"
  input: "train_step/gradients/pvg_model/fc5/BiasAdd_grad/tuple/control_dependency"
  attr {
    key: "T"
    value {
      type: DT_FLOAT
    }
  }
  attr {
    key: "transpose_a"
    value {
      b: true
    }
  }
  attr {
    key: "transpose_b"
    value {
      b: false
    }
  }
}
node {
  name: "train_step/gradients/pvg_model/fc5/MatMul_grad/tuple/group_deps"
  op: "NoOp"
  input: "^train_step/gradients/pvg_model/fc5/MatMul_grad/MatMul"
  input: "^train_step/gradients/pvg_model/fc5/MatMul_grad/MatMul_1"
}
node {
  name: "train_step/gradients/pvg_model/fc5/MatMul_grad/tuple/control_dependency"
  op: "Identity"
  input: "train_step/gradients/pvg_model/fc5/MatMul_grad/MatMul"
  input: "^train_step/gradients/pvg_model/fc5/MatMul_grad/tuple/group_deps"
  attr {
    key: "T"
    value {
      type: DT_FLOAT
    }
  }
  attr {
    key: "_class"
    value {
      list {
        s: "loc:@train_step/gradients/pvg_model/fc5/MatMul_grad/MatMul"
      }
    }
  }
}
node {
  name: "train_step/gradients/pvg_model/fc5/MatMul_grad/tuple/control_dependency_1"
  op: "Identity"
  input: "train_step/gradients/pvg_model/fc5/MatMul_grad/MatMul_1"
  input: "^train_step/gradients/pvg_model/fc5/MatMul_grad/tuple/group_deps"
  attr {
    key: "T"
    value {
      type: DT_FLOAT
    }
  }
  attr {
    key: "_class"
    value {
      list {
        s: "loc:@train_step/gradients/pvg_model/fc5/MatMul_grad/MatMul_1"
      }
    }
  }
}
node {
  name: "train_step/gradients/pvg_model/flatten4/flatten/Reshape_grad/Shape"
  op: "Shape"
  input: "pvg_model/BatchNorm_2/FusedBatchNorm"
  attr {
    key: "T"
    value {
      type: DT_FLOAT
    }
  }
  attr {
    key: "out_type"
    value {
      type: DT_INT32
    }
  }
}
node {
  name: "train_step/gradients/pvg_model/flatten4/flatten/Reshape_grad/Reshape"
  op: "Reshape"
  input: "train_step/gradients/pvg_model/fc5/MatMul_grad/tuple/control_dependency"
  input: "train_step/gradients/pvg_model/flatten4/flatten/Reshape_grad/Shape"
  attr {
    key: "T"
    value {
      type: DT_FLOAT
    }
  }
  attr {
    key: "Tshape"
    value {
      type: DT_INT32
    }
  }
}
node {
  name: "train_step/gradients/zeros_like_1"
  op: "ZerosLike"
  input: "pvg_model/BatchNorm_2/FusedBatchNorm:1"
  attr {
    key: "T"
    value {
      type: DT_FLOAT
    }
  }
}
node {
  name: "train_step/gradients/zeros_like_2"
  op: "ZerosLike"
  input: "pvg_model/BatchNorm_2/FusedBatchNorm:2"
  attr {
    key: "T"
    value {
      type: DT_FLOAT
    }
  }
}
node {
  name: "train_step/gradients/zeros_like_3"
  op: "ZerosLike"
  input: "pvg_model/BatchNorm_2/FusedBatchNorm:3"
  attr {
    key: "T"
    value {
      type: DT_FLOAT
    }
  }
}
node {
  name: "train_step/gradients/zeros_like_4"
  op: "ZerosLike"
  input: "pvg_model/BatchNorm_2/FusedBatchNorm:4"
  attr {
    key: "T"
    value {
      type: DT_FLOAT
    }
  }
}
node {
  name: "train_step/gradients/pvg_model/BatchNorm_2/FusedBatchNorm_grad/FusedBatchNormGrad"
  op: "FusedBatchNormGrad"
  input: "train_step/gradients/pvg_model/flatten4/flatten/Reshape_grad/Reshape"
  input: "pvg_model/pool3/MaxPool"
  input: "pvg_model/BatchNorm_2/Const"
  input: "pvg_model/BatchNorm_2/FusedBatchNorm:3"
  input: "pvg_model/BatchNorm_2/FusedBatchNorm:4"
  attr {
    key: "T"
    value {
      type: DT_FLOAT
    }
  }
  attr {
    key: "data_format"
    value {
      s: "NHWC"
    }
  }
  attr {
    key: "epsilon"
    value {
      f: 0.0010000000474974513
    }
  }
  attr {
    key: "is_training"
    value {
      b: true
    }
  }
}
node {
  name: "train_step/gradients/pvg_model/BatchNorm_2/FusedBatchNorm_grad/tuple/group_deps"
  op: "NoOp"
  input: "^train_step/gradients/pvg_model/BatchNorm_2/FusedBatchNorm_grad/FusedBatchNormGrad"
}
node {
  name: "train_step/gradients/pvg_model/BatchNorm_2/FusedBatchNorm_grad/tuple/control_dependency"
  op: "Identity"
  input: "train_step/gradients/pvg_model/BatchNorm_2/FusedBatchNorm_grad/FusedBatchNormGrad"
  input: "^train_step/gradients/pvg_model/BatchNorm_2/FusedBatchNorm_grad/tuple/group_deps"
  attr {
    key: "T"
    value {
      type: DT_FLOAT
    }
  }
  attr {
    key: "_class"
    value {
      list {
        s: "loc:@train_step/gradients/pvg_model/BatchNorm_2/FusedBatchNorm_grad/FusedBatchNormGrad"
      }
    }
  }
}
node {
  name: "train_step/gradients/pvg_model/BatchNorm_2/FusedBatchNorm_grad/tuple/control_dependency_1"
  op: "Identity"
  input: "train_step/gradients/pvg_model/BatchNorm_2/FusedBatchNorm_grad/FusedBatchNormGrad:1"
  input: "^train_step/gradients/pvg_model/BatchNorm_2/FusedBatchNorm_grad/tuple/group_deps"
  attr {
    key: "T"
    value {
      type: DT_FLOAT
    }
  }
  attr {
    key: "_class"
    value {
      list {
        s: "loc:@train_step/gradients/pvg_model/BatchNorm_2/FusedBatchNorm_grad/FusedBatchNormGrad"
      }
    }
  }
}
node {
  name: "train_step/gradients/pvg_model/BatchNorm_2/FusedBatchNorm_grad/tuple/control_dependency_2"
  op: "Identity"
  input: "train_step/gradients/pvg_model/BatchNorm_2/FusedBatchNorm_grad/FusedBatchNormGrad:2"
  input: "^train_step/gradients/pvg_model/BatchNorm_2/FusedBatchNorm_grad/tuple/group_deps"
  attr {
    key: "T"
    value {
      type: DT_FLOAT
    }
  }
  attr {
    key: "_class"
    value {
      list {
        s: "loc:@train_step/gradients/pvg_model/BatchNorm_2/FusedBatchNorm_grad/FusedBatchNormGrad"
      }
    }
  }
}
node {
  name: "train_step/gradients/pvg_model/BatchNorm_2/FusedBatchNorm_grad/tuple/control_dependency_3"
  op: "Identity"
  input: "train_step/gradients/pvg_model/BatchNorm_2/FusedBatchNorm_grad/FusedBatchNormGrad:3"
  input: "^train_step/gradients/pvg_model/BatchNorm_2/FusedBatchNorm_grad/tuple/group_deps"
  attr {
    key: "T"
    value {
      type: DT_FLOAT
    }
  }
  attr {
    key: "_class"
    value {
      list {
        s: "loc:@train_step/gradients/pvg_model/BatchNorm_2/FusedBatchNorm_grad/FusedBatchNormGrad"
      }
    }
  }
}
node {
  name: "train_step/gradients/pvg_model/BatchNorm_2/FusedBatchNorm_grad/tuple/control_dependency_4"
  op: "Identity"
  input: "train_step/gradients/pvg_model/BatchNorm_2/FusedBatchNorm_grad/FusedBatchNormGrad:4"
  input: "^train_step/gradients/pvg_model/BatchNorm_2/FusedBatchNorm_grad/tuple/group_deps"
  attr {
    key: "T"
    value {
      type: DT_FLOAT
    }
  }
  attr {
    key: "_class"
    value {
      list {
        s: "loc:@train_step/gradients/pvg_model/BatchNorm_2/FusedBatchNorm_grad/FusedBatchNormGrad"
      }
    }
  }
}
node {
  name: "train_step/gradients/pvg_model/pool3/MaxPool_grad/MaxPoolGrad"
  op: "MaxPoolGrad"
  input: "pvg_model/conv3/Relu"
  input: "pvg_model/pool3/MaxPool"
  input: "train_step/gradients/pvg_model/BatchNorm_2/FusedBatchNorm_grad/tuple/control_dependency"
  attr {
    key: "T"
    value {
      type: DT_FLOAT
    }
  }
  attr {
    key: "data_format"
    value {
      s: "NHWC"
    }
  }
  attr {
    key: "ksize"
    value {
      list {
        i: 1
        i: 2
        i: 2
        i: 1
      }
    }
  }
  attr {
    key: "padding"
    value {
      s: "VALID"
    }
  }
  attr {
    key: "strides"
    value {
      list {
        i: 1
        i: 2
        i: 2
        i: 1
      }
    }
  }
}
node {
  name: "train_step/gradients/pvg_model/conv3/Relu_grad/ReluGrad"
  op: "ReluGrad"
  input: "train_step/gradients/pvg_model/pool3/MaxPool_grad/MaxPoolGrad"
  input: "pvg_model/conv3/Relu"
  attr {
    key: "T"
    value {
      type: DT_FLOAT
    }
  }
}
node {
  name: "train_step/gradients/pvg_model/conv3/BiasAdd_grad/BiasAddGrad"
  op: "BiasAddGrad"
  input: "train_step/gradients/pvg_model/conv3/Relu_grad/ReluGrad"
  attr {
    key: "T"
    value {
      type: DT_FLOAT
    }
  }
  attr {
    key: "data_format"
    value {
      s: "NHWC"
    }
  }
}
node {
  name: "train_step/gradients/pvg_model/conv3/BiasAdd_grad/tuple/group_deps"
  op: "NoOp"
  input: "^train_step/gradients/pvg_model/conv3/Relu_grad/ReluGrad"
  input: "^train_step/gradients/pvg_model/conv3/BiasAdd_grad/BiasAddGrad"
}
node {
  name: "train_step/gradients/pvg_model/conv3/BiasAdd_grad/tuple/control_dependency"
  op: "Identity"
  input: "train_step/gradients/pvg_model/conv3/Relu_grad/ReluGrad"
  input: "^train_step/gradients/pvg_model/conv3/BiasAdd_grad/tuple/group_deps"
  attr {
    key: "T"
    value {
      type: DT_FLOAT
    }
  }
  attr {
    key: "_class"
    value {
      list {
        s: "loc:@train_step/gradients/pvg_model/conv3/Relu_grad/ReluGrad"
      }
    }
  }
}
node {
  name: "train_step/gradients/pvg_model/conv3/BiasAdd_grad/tuple/control_dependency_1"
  op: "Identity"
  input: "train_step/gradients/pvg_model/conv3/BiasAdd_grad/BiasAddGrad"
  input: "^train_step/gradients/pvg_model/conv3/BiasAdd_grad/tuple/group_deps"
  attr {
    key: "T"
    value {
      type: DT_FLOAT
    }
  }
  attr {
    key: "_class"
    value {
      list {
        s: "loc:@train_step/gradients/pvg_model/conv3/BiasAdd_grad/BiasAddGrad"
      }
    }
  }
}
node {
  name: "train_step/gradients/pvg_model/conv3/Conv2D_grad/ShapeN"
  op: "ShapeN"
  input: "pvg_model/BatchNorm_1/FusedBatchNorm"
  input: "pvg_model/conv3/weights/read"
  attr {
    key: "N"
    value {
      i: 2
    }
  }
  attr {
    key: "T"
    value {
      type: DT_FLOAT
    }
  }
  attr {
    key: "out_type"
    value {
      type: DT_INT32
    }
  }
}
node {
  name: "train_step/gradients/pvg_model/conv3/Conv2D_grad/Conv2DBackpropInput"
  op: "Conv2DBackpropInput"
  input: "train_step/gradients/pvg_model/conv3/Conv2D_grad/ShapeN"
  input: "pvg_model/conv3/weights/read"
  input: "train_step/gradients/pvg_model/conv3/BiasAdd_grad/tuple/control_dependency"
  attr {
    key: "T"
    value {
      type: DT_FLOAT
    }
  }
  attr {
    key: "data_format"
    value {
      s: "NHWC"
    }
  }
  attr {
    key: "padding"
    value {
      s: "SAME"
    }
  }
  attr {
    key: "strides"
    value {
      list {
        i: 1
        i: 1
        i: 1
        i: 1
      }
    }
  }
  attr {
    key: "use_cudnn_on_gpu"
    value {
      b: true
    }
  }
}
node {
  name: "train_step/gradients/pvg_model/conv3/Conv2D_grad/Conv2DBackpropFilter"
  op: "Conv2DBackpropFilter"
  input: "pvg_model/BatchNorm_1/FusedBatchNorm"
  input: "train_step/gradients/pvg_model/conv3/Conv2D_grad/ShapeN:1"
  input: "train_step/gradients/pvg_model/conv3/BiasAdd_grad/tuple/control_dependency"
  attr {
    key: "T"
    value {
      type: DT_FLOAT
    }
  }
  attr {
    key: "data_format"
    value {
      s: "NHWC"
    }
  }
  attr {
    key: "padding"
    value {
      s: "SAME"
    }
  }
  attr {
    key: "strides"
    value {
      list {
        i: 1
        i: 1
        i: 1
        i: 1
      }
    }
  }
  attr {
    key: "use_cudnn_on_gpu"
    value {
      b: true
    }
  }
}
node {
  name: "train_step/gradients/pvg_model/conv3/Conv2D_grad/tuple/group_deps"
  op: "NoOp"
  input: "^train_step/gradients/pvg_model/conv3/Conv2D_grad/Conv2DBackpropInput"
  input: "^train_step/gradients/pvg_model/conv3/Conv2D_grad/Conv2DBackpropFilter"
}
node {
  name: "train_step/gradients/pvg_model/conv3/Conv2D_grad/tuple/control_dependency"
  op: "Identity"
  input: "train_step/gradients/pvg_model/conv3/Conv2D_grad/Conv2DBackpropInput"
  input: "^train_step/gradients/pvg_model/conv3/Conv2D_grad/tuple/group_deps"
  attr {
    key: "T"
    value {
      type: DT_FLOAT
    }
  }
  attr {
    key: "_class"
    value {
      list {
        s: "loc:@train_step/gradients/pvg_model/conv3/Conv2D_grad/Conv2DBackpropInput"
      }
    }
  }
}
node {
  name: "train_step/gradients/pvg_model/conv3/Conv2D_grad/tuple/control_dependency_1"
  op: "Identity"
  input: "train_step/gradients/pvg_model/conv3/Conv2D_grad/Conv2DBackpropFilter"
  input: "^train_step/gradients/pvg_model/conv3/Conv2D_grad/tuple/group_deps"
  attr {
    key: "T"
    value {
      type: DT_FLOAT
    }
  }
  attr {
    key: "_class"
    value {
      list {
        s: "loc:@train_step/gradients/pvg_model/conv3/Conv2D_grad/Conv2DBackpropFilter"
      }
    }
  }
}
node {
  name: "train_step/gradients/zeros_like_5"
  op: "ZerosLike"
  input: "pvg_model/BatchNorm_1/FusedBatchNorm:1"
  attr {
    key: "T"
    value {
      type: DT_FLOAT
    }
  }
}
node {
  name: "train_step/gradients/zeros_like_6"
  op: "ZerosLike"
  input: "pvg_model/BatchNorm_1/FusedBatchNorm:2"
  attr {
    key: "T"
    value {
      type: DT_FLOAT
    }
  }
}
node {
  name: "train_step/gradients/zeros_like_7"
  op: "ZerosLike"
  input: "pvg_model/BatchNorm_1/FusedBatchNorm:3"
  attr {
    key: "T"
    value {
      type: DT_FLOAT
    }
  }
}
node {
  name: "train_step/gradients/zeros_like_8"
  op: "ZerosLike"
  input: "pvg_model/BatchNorm_1/FusedBatchNorm:4"
  attr {
    key: "T"
    value {
      type: DT_FLOAT
    }
  }
}
node {
  name: "train_step/gradients/pvg_model/BatchNorm_1/FusedBatchNorm_grad/FusedBatchNormGrad"
  op: "FusedBatchNormGrad"
  input: "train_step/gradients/pvg_model/conv3/Conv2D_grad/tuple/control_dependency"
  input: "pvg_model/pool2/MaxPool"
  input: "pvg_model/BatchNorm_1/Const"
  input: "pvg_model/BatchNorm_1/FusedBatchNorm:3"
  input: "pvg_model/BatchNorm_1/FusedBatchNorm:4"
  attr {
    key: "T"
    value {
      type: DT_FLOAT
    }
  }
  attr {
    key: "data_format"
    value {
      s: "NHWC"
    }
  }
  attr {
    key: "epsilon"
    value {
      f: 0.0010000000474974513
    }
  }
  attr {
    key: "is_training"
    value {
      b: true
    }
  }
}
node {
  name: "train_step/gradients/pvg_model/BatchNorm_1/FusedBatchNorm_grad/tuple/group_deps"
  op: "NoOp"
  input: "^train_step/gradients/pvg_model/BatchNorm_1/FusedBatchNorm_grad/FusedBatchNormGrad"
}
node {
  name: "train_step/gradients/pvg_model/BatchNorm_1/FusedBatchNorm_grad/tuple/control_dependency"
  op: "Identity"
  input: "train_step/gradients/pvg_model/BatchNorm_1/FusedBatchNorm_grad/FusedBatchNormGrad"
  input: "^train_step/gradients/pvg_model/BatchNorm_1/FusedBatchNorm_grad/tuple/group_deps"
  attr {
    key: "T"
    value {
      type: DT_FLOAT
    }
  }
  attr {
    key: "_class"
    value {
      list {
        s: "loc:@train_step/gradients/pvg_model/BatchNorm_1/FusedBatchNorm_grad/FusedBatchNormGrad"
      }
    }
  }
}
node {
  name: "train_step/gradients/pvg_model/BatchNorm_1/FusedBatchNorm_grad/tuple/control_dependency_1"
  op: "Identity"
  input: "train_step/gradients/pvg_model/BatchNorm_1/FusedBatchNorm_grad/FusedBatchNormGrad:1"
  input: "^train_step/gradients/pvg_model/BatchNorm_1/FusedBatchNorm_grad/tuple/group_deps"
  attr {
    key: "T"
    value {
      type: DT_FLOAT
    }
  }
  attr {
    key: "_class"
    value {
      list {
        s: "loc:@train_step/gradients/pvg_model/BatchNorm_1/FusedBatchNorm_grad/FusedBatchNormGrad"
      }
    }
  }
}
node {
  name: "train_step/gradients/pvg_model/BatchNorm_1/FusedBatchNorm_grad/tuple/control_dependency_2"
  op: "Identity"
  input: "train_step/gradients/pvg_model/BatchNorm_1/FusedBatchNorm_grad/FusedBatchNormGrad:2"
  input: "^train_step/gradients/pvg_model/BatchNorm_1/FusedBatchNorm_grad/tuple/group_deps"
  attr {
    key: "T"
    value {
      type: DT_FLOAT
    }
  }
  attr {
    key: "_class"
    value {
      list {
        s: "loc:@train_step/gradients/pvg_model/BatchNorm_1/FusedBatchNorm_grad/FusedBatchNormGrad"
      }
    }
  }
}
node {
  name: "train_step/gradients/pvg_model/BatchNorm_1/FusedBatchNorm_grad/tuple/control_dependency_3"
  op: "Identity"
  input: "train_step/gradients/pvg_model/BatchNorm_1/FusedBatchNorm_grad/FusedBatchNormGrad:3"
  input: "^train_step/gradients/pvg_model/BatchNorm_1/FusedBatchNorm_grad/tuple/group_deps"
  attr {
    key: "T"
    value {
      type: DT_FLOAT
    }
  }
  attr {
    key: "_class"
    value {
      list {
        s: "loc:@train_step/gradients/pvg_model/BatchNorm_1/FusedBatchNorm_grad/FusedBatchNormGrad"
      }
    }
  }
}
node {
  name: "train_step/gradients/pvg_model/BatchNorm_1/FusedBatchNorm_grad/tuple/control_dependency_4"
  op: "Identity"
  input: "train_step/gradients/pvg_model/BatchNorm_1/FusedBatchNorm_grad/FusedBatchNormGrad:4"
  input: "^train_step/gradients/pvg_model/BatchNorm_1/FusedBatchNorm_grad/tuple/group_deps"
  attr {
    key: "T"
    value {
      type: DT_FLOAT
    }
  }
  attr {
    key: "_class"
    value {
      list {
        s: "loc:@train_step/gradients/pvg_model/BatchNorm_1/FusedBatchNorm_grad/FusedBatchNormGrad"
      }
    }
  }
}
node {
  name: "train_step/gradients/pvg_model/pool2/MaxPool_grad/MaxPoolGrad"
  op: "MaxPoolGrad"
  input: "pvg_model/conv2/Relu"
  input: "pvg_model/pool2/MaxPool"
  input: "train_step/gradients/pvg_model/BatchNorm_1/FusedBatchNorm_grad/tuple/control_dependency"
  attr {
    key: "T"
    value {
      type: DT_FLOAT
    }
  }
  attr {
    key: "data_format"
    value {
      s: "NHWC"
    }
  }
  attr {
    key: "ksize"
    value {
      list {
        i: 1
        i: 2
        i: 2
        i: 1
      }
    }
  }
  attr {
    key: "padding"
    value {
      s: "VALID"
    }
  }
  attr {
    key: "strides"
    value {
      list {
        i: 1
        i: 2
        i: 2
        i: 1
      }
    }
  }
}
node {
  name: "train_step/gradients/pvg_model/conv2/Relu_grad/ReluGrad"
  op: "ReluGrad"
  input: "train_step/gradients/pvg_model/pool2/MaxPool_grad/MaxPoolGrad"
  input: "pvg_model/conv2/Relu"
  attr {
    key: "T"
    value {
      type: DT_FLOAT
    }
  }
}
node {
  name: "train_step/gradients/pvg_model/conv2/BiasAdd_grad/BiasAddGrad"
  op: "BiasAddGrad"
  input: "train_step/gradients/pvg_model/conv2/Relu_grad/ReluGrad"
  attr {
    key: "T"
    value {
      type: DT_FLOAT
    }
  }
  attr {
    key: "data_format"
    value {
      s: "NHWC"
    }
  }
}
node {
  name: "train_step/gradients/pvg_model/conv2/BiasAdd_grad/tuple/group_deps"
  op: "NoOp"
  input: "^train_step/gradients/pvg_model/conv2/Relu_grad/ReluGrad"
  input: "^train_step/gradients/pvg_model/conv2/BiasAdd_grad/BiasAddGrad"
}
node {
  name: "train_step/gradients/pvg_model/conv2/BiasAdd_grad/tuple/control_dependency"
  op: "Identity"
  input: "train_step/gradients/pvg_model/conv2/Relu_grad/ReluGrad"
  input: "^train_step/gradients/pvg_model/conv2/BiasAdd_grad/tuple/group_deps"
  attr {
    key: "T"
    value {
      type: DT_FLOAT
    }
  }
  attr {
    key: "_class"
    value {
      list {
        s: "loc:@train_step/gradients/pvg_model/conv2/Relu_grad/ReluGrad"
      }
    }
  }
}
node {
  name: "train_step/gradients/pvg_model/conv2/BiasAdd_grad/tuple/control_dependency_1"
  op: "Identity"
  input: "train_step/gradients/pvg_model/conv2/BiasAdd_grad/BiasAddGrad"
  input: "^train_step/gradients/pvg_model/conv2/BiasAdd_grad/tuple/group_deps"
  attr {
    key: "T"
    value {
      type: DT_FLOAT
    }
  }
  attr {
    key: "_class"
    value {
      list {
        s: "loc:@train_step/gradients/pvg_model/conv2/BiasAdd_grad/BiasAddGrad"
      }
    }
  }
}
node {
  name: "train_step/gradients/pvg_model/conv2/Conv2D_grad/ShapeN"
  op: "ShapeN"
  input: "pvg_model/BatchNorm/FusedBatchNorm"
  input: "pvg_model/conv2/weights/read"
  attr {
    key: "N"
    value {
      i: 2
    }
  }
  attr {
    key: "T"
    value {
      type: DT_FLOAT
    }
  }
  attr {
    key: "out_type"
    value {
      type: DT_INT32
    }
  }
}
node {
  name: "train_step/gradients/pvg_model/conv2/Conv2D_grad/Conv2DBackpropInput"
  op: "Conv2DBackpropInput"
  input: "train_step/gradients/pvg_model/conv2/Conv2D_grad/ShapeN"
  input: "pvg_model/conv2/weights/read"
  input: "train_step/gradients/pvg_model/conv2/BiasAdd_grad/tuple/control_dependency"
  attr {
    key: "T"
    value {
      type: DT_FLOAT
    }
  }
  attr {
    key: "data_format"
    value {
      s: "NHWC"
    }
  }
  attr {
    key: "padding"
    value {
      s: "SAME"
    }
  }
  attr {
    key: "strides"
    value {
      list {
        i: 1
        i: 1
        i: 1
        i: 1
      }
    }
  }
  attr {
    key: "use_cudnn_on_gpu"
    value {
      b: true
    }
  }
}
node {
  name: "train_step/gradients/pvg_model/conv2/Conv2D_grad/Conv2DBackpropFilter"
  op: "Conv2DBackpropFilter"
  input: "pvg_model/BatchNorm/FusedBatchNorm"
  input: "train_step/gradients/pvg_model/conv2/Conv2D_grad/ShapeN:1"
  input: "train_step/gradients/pvg_model/conv2/BiasAdd_grad/tuple/control_dependency"
  attr {
    key: "T"
    value {
      type: DT_FLOAT
    }
  }
  attr {
    key: "data_format"
    value {
      s: "NHWC"
    }
  }
  attr {
    key: "padding"
    value {
      s: "SAME"
    }
  }
  attr {
    key: "strides"
    value {
      list {
        i: 1
        i: 1
        i: 1
        i: 1
      }
    }
  }
  attr {
    key: "use_cudnn_on_gpu"
    value {
      b: true
    }
  }
}
node {
  name: "train_step/gradients/pvg_model/conv2/Conv2D_grad/tuple/group_deps"
  op: "NoOp"
  input: "^train_step/gradients/pvg_model/conv2/Conv2D_grad/Conv2DBackpropInput"
  input: "^train_step/gradients/pvg_model/conv2/Conv2D_grad/Conv2DBackpropFilter"
}
node {
  name: "train_step/gradients/pvg_model/conv2/Conv2D_grad/tuple/control_dependency"
  op: "Identity"
  input: "train_step/gradients/pvg_model/conv2/Conv2D_grad/Conv2DBackpropInput"
  input: "^train_step/gradients/pvg_model/conv2/Conv2D_grad/tuple/group_deps"
  attr {
    key: "T"
    value {
      type: DT_FLOAT
    }
  }
  attr {
    key: "_class"
    value {
      list {
        s: "loc:@train_step/gradients/pvg_model/conv2/Conv2D_grad/Conv2DBackpropInput"
      }
    }
  }
}
node {
  name: "train_step/gradients/pvg_model/conv2/Conv2D_grad/tuple/control_dependency_1"
  op: "Identity"
  input: "train_step/gradients/pvg_model/conv2/Conv2D_grad/Conv2DBackpropFilter"
  input: "^train_step/gradients/pvg_model/conv2/Conv2D_grad/tuple/group_deps"
  attr {
    key: "T"
    value {
      type: DT_FLOAT
    }
  }
  attr {
    key: "_class"
    value {
      list {
        s: "loc:@train_step/gradients/pvg_model/conv2/Conv2D_grad/Conv2DBackpropFilter"
      }
    }
  }
}
node {
  name: "train_step/gradients/zeros_like_9"
  op: "ZerosLike"
  input: "pvg_model/BatchNorm/FusedBatchNorm:1"
  attr {
    key: "T"
    value {
      type: DT_FLOAT
    }
  }
}
node {
  name: "train_step/gradients/zeros_like_10"
  op: "ZerosLike"
  input: "pvg_model/BatchNorm/FusedBatchNorm:2"
  attr {
    key: "T"
    value {
      type: DT_FLOAT
    }
  }
}
node {
  name: "train_step/gradients/zeros_like_11"
  op: "ZerosLike"
  input: "pvg_model/BatchNorm/FusedBatchNorm:3"
  attr {
    key: "T"
    value {
      type: DT_FLOAT
    }
  }
}
node {
  name: "train_step/gradients/zeros_like_12"
  op: "ZerosLike"
  input: "pvg_model/BatchNorm/FusedBatchNorm:4"
  attr {
    key: "T"
    value {
      type: DT_FLOAT
    }
  }
}
node {
  name: "train_step/gradients/pvg_model/BatchNorm/FusedBatchNorm_grad/FusedBatchNormGrad"
  op: "FusedBatchNormGrad"
  input: "train_step/gradients/pvg_model/conv2/Conv2D_grad/tuple/control_dependency"
  input: "pvg_model/pool1/MaxPool"
  input: "pvg_model/BatchNorm/Const"
  input: "pvg_model/BatchNorm/FusedBatchNorm:3"
  input: "pvg_model/BatchNorm/FusedBatchNorm:4"
  attr {
    key: "T"
    value {
      type: DT_FLOAT
    }
  }
  attr {
    key: "data_format"
    value {
      s: "NHWC"
    }
  }
  attr {
    key: "epsilon"
    value {
      f: 0.0010000000474974513
    }
  }
  attr {
    key: "is_training"
    value {
      b: true
    }
  }
}
node {
  name: "train_step/gradients/pvg_model/BatchNorm/FusedBatchNorm_grad/tuple/group_deps"
  op: "NoOp"
  input: "^train_step/gradients/pvg_model/BatchNorm/FusedBatchNorm_grad/FusedBatchNormGrad"
}
node {
  name: "train_step/gradients/pvg_model/BatchNorm/FusedBatchNorm_grad/tuple/control_dependency"
  op: "Identity"
  input: "train_step/gradients/pvg_model/BatchNorm/FusedBatchNorm_grad/FusedBatchNormGrad"
  input: "^train_step/gradients/pvg_model/BatchNorm/FusedBatchNorm_grad/tuple/group_deps"
  attr {
    key: "T"
    value {
      type: DT_FLOAT
    }
  }
  attr {
    key: "_class"
    value {
      list {
        s: "loc:@train_step/gradients/pvg_model/BatchNorm/FusedBatchNorm_grad/FusedBatchNormGrad"
      }
    }
  }
}
node {
  name: "train_step/gradients/pvg_model/BatchNorm/FusedBatchNorm_grad/tuple/control_dependency_1"
  op: "Identity"
  input: "train_step/gradients/pvg_model/BatchNorm/FusedBatchNorm_grad/FusedBatchNormGrad:1"
  input: "^train_step/gradients/pvg_model/BatchNorm/FusedBatchNorm_grad/tuple/group_deps"
  attr {
    key: "T"
    value {
      type: DT_FLOAT
    }
  }
  attr {
    key: "_class"
    value {
      list {
        s: "loc:@train_step/gradients/pvg_model/BatchNorm/FusedBatchNorm_grad/FusedBatchNormGrad"
      }
    }
  }
}
node {
  name: "train_step/gradients/pvg_model/BatchNorm/FusedBatchNorm_grad/tuple/control_dependency_2"
  op: "Identity"
  input: "train_step/gradients/pvg_model/BatchNorm/FusedBatchNorm_grad/FusedBatchNormGrad:2"
  input: "^train_step/gradients/pvg_model/BatchNorm/FusedBatchNorm_grad/tuple/group_deps"
  attr {
    key: "T"
    value {
      type: DT_FLOAT
    }
  }
  attr {
    key: "_class"
    value {
      list {
        s: "loc:@train_step/gradients/pvg_model/BatchNorm/FusedBatchNorm_grad/FusedBatchNormGrad"
      }
    }
  }
}
node {
  name: "train_step/gradients/pvg_model/BatchNorm/FusedBatchNorm_grad/tuple/control_dependency_3"
  op: "Identity"
  input: "train_step/gradients/pvg_model/BatchNorm/FusedBatchNorm_grad/FusedBatchNormGrad:3"
  input: "^train_step/gradients/pvg_model/BatchNorm/FusedBatchNorm_grad/tuple/group_deps"
  attr {
    key: "T"
    value {
      type: DT_FLOAT
    }
  }
  attr {
    key: "_class"
    value {
      list {
        s: "loc:@train_step/gradients/pvg_model/BatchNorm/FusedBatchNorm_grad/FusedBatchNormGrad"
      }
    }
  }
}
node {
  name: "train_step/gradients/pvg_model/BatchNorm/FusedBatchNorm_grad/tuple/control_dependency_4"
  op: "Identity"
  input: "train_step/gradients/pvg_model/BatchNorm/FusedBatchNorm_grad/FusedBatchNormGrad:4"
  input: "^train_step/gradients/pvg_model/BatchNorm/FusedBatchNorm_grad/tuple/group_deps"
  attr {
    key: "T"
    value {
      type: DT_FLOAT
    }
  }
  attr {
    key: "_class"
    value {
      list {
        s: "loc:@train_step/gradients/pvg_model/BatchNorm/FusedBatchNorm_grad/FusedBatchNormGrad"
      }
    }
  }
}
node {
  name: "train_step/gradients/pvg_model/pool1/MaxPool_grad/MaxPoolGrad"
  op: "MaxPoolGrad"
  input: "pvg_model/conv1/Relu"
  input: "pvg_model/pool1/MaxPool"
  input: "train_step/gradients/pvg_model/BatchNorm/FusedBatchNorm_grad/tuple/control_dependency"
  attr {
    key: "T"
    value {
      type: DT_FLOAT
    }
  }
  attr {
    key: "data_format"
    value {
      s: "NHWC"
    }
  }
  attr {
    key: "ksize"
    value {
      list {
        i: 1
        i: 2
        i: 2
        i: 1
      }
    }
  }
  attr {
    key: "padding"
    value {
      s: "VALID"
    }
  }
  attr {
    key: "strides"
    value {
      list {
        i: 1
        i: 2
        i: 2
        i: 1
      }
    }
  }
}
node {
  name: "train_step/gradients/pvg_model/conv1/Relu_grad/ReluGrad"
  op: "ReluGrad"
  input: "train_step/gradients/pvg_model/pool1/MaxPool_grad/MaxPoolGrad"
  input: "pvg_model/conv1/Relu"
  attr {
    key: "T"
    value {
      type: DT_FLOAT
    }
  }
}
node {
  name: "train_step/gradients/pvg_model/conv1/BiasAdd_grad/BiasAddGrad"
  op: "BiasAddGrad"
  input: "train_step/gradients/pvg_model/conv1/Relu_grad/ReluGrad"
  attr {
    key: "T"
    value {
      type: DT_FLOAT
    }
  }
  attr {
    key: "data_format"
    value {
      s: "NHWC"
    }
  }
}
node {
  name: "train_step/gradients/pvg_model/conv1/BiasAdd_grad/tuple/group_deps"
  op: "NoOp"
  input: "^train_step/gradients/pvg_model/conv1/Relu_grad/ReluGrad"
  input: "^train_step/gradients/pvg_model/conv1/BiasAdd_grad/BiasAddGrad"
}
node {
  name: "train_step/gradients/pvg_model/conv1/BiasAdd_grad/tuple/control_dependency"
  op: "Identity"
  input: "train_step/gradients/pvg_model/conv1/Relu_grad/ReluGrad"
  input: "^train_step/gradients/pvg_model/conv1/BiasAdd_grad/tuple/group_deps"
  attr {
    key: "T"
    value {
      type: DT_FLOAT
    }
  }
  attr {
    key: "_class"
    value {
      list {
        s: "loc:@train_step/gradients/pvg_model/conv1/Relu_grad/ReluGrad"
      }
    }
  }
}
node {
  name: "train_step/gradients/pvg_model/conv1/BiasAdd_grad/tuple/control_dependency_1"
  op: "Identity"
  input: "train_step/gradients/pvg_model/conv1/BiasAdd_grad/BiasAddGrad"
  input: "^train_step/gradients/pvg_model/conv1/BiasAdd_grad/tuple/group_deps"
  attr {
    key: "T"
    value {
      type: DT_FLOAT
    }
  }
  attr {
    key: "_class"
    value {
      list {
        s: "loc:@train_step/gradients/pvg_model/conv1/BiasAdd_grad/BiasAddGrad"
      }
    }
  }
}
node {
  name: "train_step/gradients/pvg_model/conv1/Conv2D_grad/ShapeN"
  op: "ShapeN"
  input: "Reshape"
  input: "pvg_model/conv1/weights/read"
  attr {
    key: "N"
    value {
      i: 2
    }
  }
  attr {
    key: "T"
    value {
      type: DT_FLOAT
    }
  }
  attr {
    key: "out_type"
    value {
      type: DT_INT32
    }
  }
}
node {
  name: "train_step/gradients/pvg_model/conv1/Conv2D_grad/Conv2DBackpropInput"
  op: "Conv2DBackpropInput"
  input: "train_step/gradients/pvg_model/conv1/Conv2D_grad/ShapeN"
  input: "pvg_model/conv1/weights/read"
  input: "train_step/gradients/pvg_model/conv1/BiasAdd_grad/tuple/control_dependency"
  attr {
    key: "T"
    value {
      type: DT_FLOAT
    }
  }
  attr {
    key: "data_format"
    value {
      s: "NHWC"
    }
  }
  attr {
    key: "padding"
    value {
      s: "SAME"
    }
  }
  attr {
    key: "strides"
    value {
      list {
        i: 1
        i: 1
        i: 1
        i: 1
      }
    }
  }
  attr {
    key: "use_cudnn_on_gpu"
    value {
      b: true
    }
  }
}
node {
  name: "train_step/gradients/pvg_model/conv1/Conv2D_grad/Conv2DBackpropFilter"
  op: "Conv2DBackpropFilter"
  input: "Reshape"
  input: "train_step/gradients/pvg_model/conv1/Conv2D_grad/ShapeN:1"
  input: "train_step/gradients/pvg_model/conv1/BiasAdd_grad/tuple/control_dependency"
  attr {
    key: "T"
    value {
      type: DT_FLOAT
    }
  }
  attr {
    key: "data_format"
    value {
      s: "NHWC"
    }
  }
  attr {
    key: "padding"
    value {
      s: "SAME"
    }
  }
  attr {
    key: "strides"
    value {
      list {
        i: 1
        i: 1
        i: 1
        i: 1
      }
    }
  }
  attr {
    key: "use_cudnn_on_gpu"
    value {
      b: true
    }
  }
}
node {
  name: "train_step/gradients/pvg_model/conv1/Conv2D_grad/tuple/group_deps"
  op: "NoOp"
  input: "^train_step/gradients/pvg_model/conv1/Conv2D_grad/Conv2DBackpropInput"
  input: "^train_step/gradients/pvg_model/conv1/Conv2D_grad/Conv2DBackpropFilter"
}
node {
  name: "train_step/gradients/pvg_model/conv1/Conv2D_grad/tuple/control_dependency"
  op: "Identity"
  input: "train_step/gradients/pvg_model/conv1/Conv2D_grad/Conv2DBackpropInput"
  input: "^train_step/gradients/pvg_model/conv1/Conv2D_grad/tuple/group_deps"
  attr {
    key: "T"
    value {
      type: DT_FLOAT
    }
  }
  attr {
    key: "_class"
    value {
      list {
        s: "loc:@train_step/gradients/pvg_model/conv1/Conv2D_grad/Conv2DBackpropInput"
      }
    }
  }
}
node {
  name: "train_step/gradients/pvg_model/conv1/Conv2D_grad/tuple/control_dependency_1"
  op: "Identity"
  input: "train_step/gradients/pvg_model/conv1/Conv2D_grad/Conv2DBackpropFilter"
  input: "^train_step/gradients/pvg_model/conv1/Conv2D_grad/tuple/group_deps"
  attr {
    key: "T"
    value {
      type: DT_FLOAT
    }
  }
  attr {
    key: "_class"
    value {
      list {
        s: "loc:@train_step/gradients/pvg_model/conv1/Conv2D_grad/Conv2DBackpropFilter"
      }
    }
  }
}
node {
  name: "train_step/beta1_power/initial_value"
  op: "Const"
  attr {
    key: "_class"
    value {
      list {
        s: "loc:@pvg_model/BatchNorm/beta"
      }
    }
  }
  attr {
    key: "dtype"
    value {
      type: DT_FLOAT
    }
  }
  attr {
    key: "value"
    value {
      tensor {
        dtype: DT_FLOAT
        tensor_shape {
        }
        float_val: 0.8999999761581421
      }
    }
  }
}
node {
  name: "train_step/beta1_power"
  op: "VariableV2"
  attr {
    key: "_class"
    value {
      list {
        s: "loc:@pvg_model/BatchNorm/beta"
      }
    }
  }
  attr {
    key: "container"
    value {
      s: ""
    }
  }
  attr {
    key: "dtype"
    value {
      type: DT_FLOAT
    }
  }
  attr {
    key: "shape"
    value {
      shape {
      }
    }
  }
  attr {
    key: "shared_name"
    value {
      s: ""
    }
  }
}
node {
  name: "train_step/beta1_power/Assign"
  op: "Assign"
  input: "train_step/beta1_power"
  input: "train_step/beta1_power/initial_value"
  attr {
    key: "T"
    value {
      type: DT_FLOAT
    }
  }
  attr {
    key: "_class"
    value {
      list {
        s: "loc:@pvg_model/BatchNorm/beta"
      }
    }
  }
  attr {
    key: "use_locking"
    value {
      b: true
    }
  }
  attr {
    key: "validate_shape"
    value {
      b: true
    }
  }
}
node {
  name: "train_step/beta1_power/read"
  op: "Identity"
  input: "train_step/beta1_power"
  attr {
    key: "T"
    value {
      type: DT_FLOAT
    }
  }
  attr {
    key: "_class"
    value {
      list {
        s: "loc:@pvg_model/BatchNorm/beta"
      }
    }
  }
}
node {
  name: "train_step/beta2_power/initial_value"
  op: "Const"
  attr {
    key: "_class"
    value {
      list {
        s: "loc:@pvg_model/BatchNorm/beta"
      }
    }
  }
  attr {
    key: "dtype"
    value {
      type: DT_FLOAT
    }
  }
  attr {
    key: "value"
    value {
      tensor {
        dtype: DT_FLOAT
        tensor_shape {
        }
        float_val: 0.9990000128746033
      }
    }
  }
}
node {
  name: "train_step/beta2_power"
  op: "VariableV2"
  attr {
    key: "_class"
    value {
      list {
        s: "loc:@pvg_model/BatchNorm/beta"
      }
    }
  }
  attr {
    key: "container"
    value {
      s: ""
    }
  }
  attr {
    key: "dtype"
    value {
      type: DT_FLOAT
    }
  }
  attr {
    key: "shape"
    value {
      shape {
      }
    }
  }
  attr {
    key: "shared_name"
    value {
      s: ""
    }
  }
}
node {
  name: "train_step/beta2_power/Assign"
  op: "Assign"
  input: "train_step/beta2_power"
  input: "train_step/beta2_power/initial_value"
  attr {
    key: "T"
    value {
      type: DT_FLOAT
    }
  }
  attr {
    key: "_class"
    value {
      list {
        s: "loc:@pvg_model/BatchNorm/beta"
      }
    }
  }
  attr {
    key: "use_locking"
    value {
      b: true
    }
  }
  attr {
    key: "validate_shape"
    value {
      b: true
    }
  }
}
node {
  name: "train_step/beta2_power/read"
  op: "Identity"
  input: "train_step/beta2_power"
  attr {
    key: "T"
    value {
      type: DT_FLOAT
    }
  }
  attr {
    key: "_class"
    value {
      list {
        s: "loc:@pvg_model/BatchNorm/beta"
      }
    }
  }
}
node {
  name: "pvg_model/conv1/weights/Adam/Initializer/zeros"
  op: "Const"
  attr {
    key: "_class"
    value {
      list {
        s: "loc:@pvg_model/conv1/weights"
      }
    }
  }
  attr {
    key: "dtype"
    value {
      type: DT_FLOAT
    }
  }
  attr {
    key: "value"
    value {
      tensor {
        dtype: DT_FLOAT
        tensor_shape {
          dim {
            size: 5
          }
          dim {
            size: 5
          }
          dim {
            size: 1
          }
          dim {
            size: 20
          }
        }
        float_val: 0.0
      }
    }
  }
}
node {
  name: "pvg_model/conv1/weights/Adam"
  op: "VariableV2"
  attr {
    key: "_class"
    value {
      list {
        s: "loc:@pvg_model/conv1/weights"
      }
    }
  }
  attr {
    key: "container"
    value {
      s: ""
    }
  }
  attr {
    key: "dtype"
    value {
      type: DT_FLOAT
    }
  }
  attr {
    key: "shape"
    value {
      shape {
        dim {
          size: 5
        }
        dim {
          size: 5
        }
        dim {
          size: 1
        }
        dim {
          size: 20
        }
      }
    }
  }
  attr {
    key: "shared_name"
    value {
      s: ""
    }
  }
}
node {
  name: "pvg_model/conv1/weights/Adam/Assign"
  op: "Assign"
  input: "pvg_model/conv1/weights/Adam"
  input: "pvg_model/conv1/weights/Adam/Initializer/zeros"
  attr {
    key: "T"
    value {
      type: DT_FLOAT
    }
  }
  attr {
    key: "_class"
    value {
      list {
        s: "loc:@pvg_model/conv1/weights"
      }
    }
  }
  attr {
    key: "use_locking"
    value {
      b: true
    }
  }
  attr {
    key: "validate_shape"
    value {
      b: true
    }
  }
}
node {
  name: "pvg_model/conv1/weights/Adam/read"
  op: "Identity"
  input: "pvg_model/conv1/weights/Adam"
  attr {
    key: "T"
    value {
      type: DT_FLOAT
    }
  }
  attr {
    key: "_class"
    value {
      list {
        s: "loc:@pvg_model/conv1/weights"
      }
    }
  }
}
node {
  name: "pvg_model/conv1/weights/Adam_1/Initializer/zeros"
  op: "Const"
  attr {
    key: "_class"
    value {
      list {
        s: "loc:@pvg_model/conv1/weights"
      }
    }
  }
  attr {
    key: "dtype"
    value {
      type: DT_FLOAT
    }
  }
  attr {
    key: "value"
    value {
      tensor {
        dtype: DT_FLOAT
        tensor_shape {
          dim {
            size: 5
          }
          dim {
            size: 5
          }
          dim {
            size: 1
          }
          dim {
            size: 20
          }
        }
        float_val: 0.0
      }
    }
  }
}
node {
  name: "pvg_model/conv1/weights/Adam_1"
  op: "VariableV2"
  attr {
    key: "_class"
    value {
      list {
        s: "loc:@pvg_model/conv1/weights"
      }
    }
  }
  attr {
    key: "container"
    value {
      s: ""
    }
  }
  attr {
    key: "dtype"
    value {
      type: DT_FLOAT
    }
  }
  attr {
    key: "shape"
    value {
      shape {
        dim {
          size: 5
        }
        dim {
          size: 5
        }
        dim {
          size: 1
        }
        dim {
          size: 20
        }
      }
    }
  }
  attr {
    key: "shared_name"
    value {
      s: ""
    }
  }
}
node {
  name: "pvg_model/conv1/weights/Adam_1/Assign"
  op: "Assign"
  input: "pvg_model/conv1/weights/Adam_1"
  input: "pvg_model/conv1/weights/Adam_1/Initializer/zeros"
  attr {
    key: "T"
    value {
      type: DT_FLOAT
    }
  }
  attr {
    key: "_class"
    value {
      list {
        s: "loc:@pvg_model/conv1/weights"
      }
    }
  }
  attr {
    key: "use_locking"
    value {
      b: true
    }
  }
  attr {
    key: "validate_shape"
    value {
      b: true
    }
  }
}
node {
  name: "pvg_model/conv1/weights/Adam_1/read"
  op: "Identity"
  input: "pvg_model/conv1/weights/Adam_1"
  attr {
    key: "T"
    value {
      type: DT_FLOAT
    }
  }
  attr {
    key: "_class"
    value {
      list {
        s: "loc:@pvg_model/conv1/weights"
      }
    }
  }
}
node {
  name: "pvg_model/conv1/biases/Adam/Initializer/zeros"
  op: "Const"
  attr {
    key: "_class"
    value {
      list {
        s: "loc:@pvg_model/conv1/biases"
      }
    }
  }
  attr {
    key: "dtype"
    value {
      type: DT_FLOAT
    }
  }
  attr {
    key: "value"
    value {
      tensor {
        dtype: DT_FLOAT
        tensor_shape {
          dim {
            size: 20
          }
        }
        float_val: 0.0
      }
    }
  }
}
node {
  name: "pvg_model/conv1/biases/Adam"
  op: "VariableV2"
  attr {
    key: "_class"
    value {
      list {
        s: "loc:@pvg_model/conv1/biases"
      }
    }
  }
  attr {
    key: "container"
    value {
      s: ""
    }
  }
  attr {
    key: "dtype"
    value {
      type: DT_FLOAT
    }
  }
  attr {
    key: "shape"
    value {
      shape {
        dim {
          size: 20
        }
      }
    }
  }
  attr {
    key: "shared_name"
    value {
      s: ""
    }
  }
}
node {
  name: "pvg_model/conv1/biases/Adam/Assign"
  op: "Assign"
  input: "pvg_model/conv1/biases/Adam"
  input: "pvg_model/conv1/biases/Adam/Initializer/zeros"
  attr {
    key: "T"
    value {
      type: DT_FLOAT
    }
  }
  attr {
    key: "_class"
    value {
      list {
        s: "loc:@pvg_model/conv1/biases"
      }
    }
  }
  attr {
    key: "use_locking"
    value {
      b: true
    }
  }
  attr {
    key: "validate_shape"
    value {
      b: true
    }
  }
}
node {
  name: "pvg_model/conv1/biases/Adam/read"
  op: "Identity"
  input: "pvg_model/conv1/biases/Adam"
  attr {
    key: "T"
    value {
      type: DT_FLOAT
    }
  }
  attr {
    key: "_class"
    value {
      list {
        s: "loc:@pvg_model/conv1/biases"
      }
    }
  }
}
node {
  name: "pvg_model/conv1/biases/Adam_1/Initializer/zeros"
  op: "Const"
  attr {
    key: "_class"
    value {
      list {
        s: "loc:@pvg_model/conv1/biases"
      }
    }
  }
  attr {
    key: "dtype"
    value {
      type: DT_FLOAT
    }
  }
  attr {
    key: "value"
    value {
      tensor {
        dtype: DT_FLOAT
        tensor_shape {
          dim {
            size: 20
          }
        }
        float_val: 0.0
      }
    }
  }
}
node {
  name: "pvg_model/conv1/biases/Adam_1"
  op: "VariableV2"
  attr {
    key: "_class"
    value {
      list {
        s: "loc:@pvg_model/conv1/biases"
      }
    }
  }
  attr {
    key: "container"
    value {
      s: ""
    }
  }
  attr {
    key: "dtype"
    value {
      type: DT_FLOAT
    }
  }
  attr {
    key: "shape"
    value {
      shape {
        dim {
          size: 20
        }
      }
    }
  }
  attr {
    key: "shared_name"
    value {
      s: ""
    }
  }
}
node {
  name: "pvg_model/conv1/biases/Adam_1/Assign"
  op: "Assign"
  input: "pvg_model/conv1/biases/Adam_1"
  input: "pvg_model/conv1/biases/Adam_1/Initializer/zeros"
  attr {
    key: "T"
    value {
      type: DT_FLOAT
    }
  }
  attr {
    key: "_class"
    value {
      list {
        s: "loc:@pvg_model/conv1/biases"
      }
    }
  }
  attr {
    key: "use_locking"
    value {
      b: true
    }
  }
  attr {
    key: "validate_shape"
    value {
      b: true
    }
  }
}
node {
  name: "pvg_model/conv1/biases/Adam_1/read"
  op: "Identity"
  input: "pvg_model/conv1/biases/Adam_1"
  attr {
    key: "T"
    value {
      type: DT_FLOAT
    }
  }
  attr {
    key: "_class"
    value {
      list {
        s: "loc:@pvg_model/conv1/biases"
      }
    }
  }
}
node {
  name: "pvg_model/BatchNorm/beta/Adam/Initializer/zeros"
  op: "Const"
  attr {
    key: "_class"
    value {
      list {
        s: "loc:@pvg_model/BatchNorm/beta"
      }
    }
  }
  attr {
    key: "dtype"
    value {
      type: DT_FLOAT
    }
  }
  attr {
    key: "value"
    value {
      tensor {
        dtype: DT_FLOAT
        tensor_shape {
…
  input: "save/Const"
  input: "save/RestoreV2_13/tensor_names"
  input: "save/RestoreV2_13/shape_and_slices"
  attr {
    key: "dtypes"
    value {
      list {
        type: DT_FLOAT
      }
    }
  }
}
node {
  name: "save/Assign_13"
  op: "Assign"
  input: "pvg_model/BatchNorm_2/moving_mean"
  input: "save/RestoreV2_13"
  attr {
    key: "T"
    value {
      type: DT_FLOAT
    }
  }
  attr {
    key: "_class"
    value {
      list {
        s: "loc:@pvg_model/BatchNorm_2/moving_mean"
      }
    }
  }
  attr {
    key: "use_locking"
    value {
      b: true
    }
  }
  attr {
    key: "validate_shape"
    value {
      b: true
    }
  }
}
node {
  name: "save/RestoreV2_14/tensor_names"
  op: "Const"
  attr {
    key: "dtype"
    value {
      type: DT_STRING
    }
  }
  attr {
    key: "value"
    value {
      tensor {
        dtype: DT_STRING
        tensor_shape {
          dim {
            size: 1
          }
        }
        string_val: "pvg_model/BatchNorm_2/moving_variance"
      }
    }
  }
}
node {
  name: "save/RestoreV2_14/shape_and_slices"
  op: "Const"
  attr {
    key: "dtype"
    value {
      type: DT_STRING
    }
  }
  attr {
    key: "value"
    value {
      tensor {
        dtype: DT_STRING
        tensor_shape {
          dim {
            size: 1
          }
        }
        string_val: ""
      }
    }
  }
}
node {
  name: "save/RestoreV2_14"
  op: "RestoreV2"
  input: "save/Const"
  input: "save/RestoreV2_14/tensor_names"
  input: "save/RestoreV2_14/shape_and_slices"
  attr {
    key: "dtypes"
    value {
      list {
        type: DT_FLOAT
      }
    }
  }
}
node {
  name: "save/Assign_14"
  op: "Assign"
  input: "pvg_model/BatchNorm_2/moving_variance"
  input: "save/RestoreV2_14"
  attr {
    key: "T"
    value {
      type: DT_FLOAT
    }
  }
  attr {
    key: "_class"
    value {
      list {
        s: "loc:@pvg_model/BatchNorm_2/moving_variance"
      }
    }
  }
  attr {
    key: "use_locking"
    value {
      b: true
    }
  }
  attr {
    key: "validate_shape"
    value {
      b: true
    }
  }
}
node {
  name: "save/RestoreV2_15/tensor_names"
  op: "Const"
  attr {
    key: "dtype"
    value {
      type: DT_STRING
    }
  }
  attr {
    key: "value"
    value {
      tensor {
        dtype: DT_STRING
        tensor_shape {
          dim {
            size: 1
          }
        }
        string_val: "pvg_model/conv1/biases"
      }
    }
  }
}
node {
  name: "save/RestoreV2_15/shape_and_slices"
  op: "Const"
  attr {
    key: "dtype"
    value {
      type: DT_STRING
    }
  }
  attr {
    key: "value"
    value {
      tensor {
        dtype: DT_STRING
        tensor_shape {
          dim {
            size: 1
          }
        }
        string_val: ""
      }
    }
  }
}
node {
  name: "save/RestoreV2_15"
  op: "RestoreV2"
  input: "save/Const"
  input: "save/RestoreV2_15/tensor_names"
  input: "save/RestoreV2_15/shape_and_slices"
  attr {
    key: "dtypes"
    value {
      list {
        type: DT_FLOAT
      }
    }
  }
}
node {
  name: "save/Assign_15"
  op: "Assign"
  input: "pvg_model/conv1/biases"
  input: "save/RestoreV2_15"
  attr {
    key: "T"
    value {
      type: DT_FLOAT
    }
  }
  attr {
    key: "_class"
    value {
      list {
        s: "loc:@pvg_model/conv1/biases"
      }
    }
  }
  attr {
    key: "use_locking"
    value {
      b: true
    }
  }
  attr {
    key: "validate_shape"
    value {
      b: true
    }
  }
}
node {
  name: "save/RestoreV2_16/tensor_names"
  op: "Const"
  attr {
    key: "dtype"
    value {
      type: DT_STRING
    }
  }
  attr {
    key: "value"
    value {
      tensor {
        dtype: DT_STRING
        tensor_shape {
          dim {
            size: 1
          }
        }
        string_val: "pvg_model/conv1/biases/Adam"
      }
    }
  }
}
node {
  name: "save/RestoreV2_16/shape_and_slices"
  op: "Const"
  attr {
    key: "dtype"
    value {
      type: DT_STRING
    }
  }
  attr {
    key: "value"
    value {
      tensor {
        dtype: DT_STRING
        tensor_shape {
          dim {
            size: 1
          }
        }
        string_val: ""
      }
    }
  }
}
node {
  name: "save/RestoreV2_16"
  op: "RestoreV2"
  input: "save/Const"
  input: "save/RestoreV2_16/tensor_names"
  input: "save/RestoreV2_16/shape_and_slices"
  attr {
    key: "dtypes"
    value {
      list {
        type: DT_FLOAT
      }
    }
  }
}
node {
  name: "save/Assign_16"
  op: "Assign"
  input: "pvg_model/conv1/biases/Adam"
  input: "save/RestoreV2_16"
  attr {
    key: "T"
    value {
      type: DT_FLOAT
    }
  }
  attr {
    key: "_class"
    value {
      list {
        s: "loc:@pvg_model/conv1/biases"
      }
    }
  }
  attr {
    key: "use_locking"
    value {
      b: true
    }
  }
  attr {
    key: "validate_shape"
    value {
      b: true
    }
  }
}
node {
  name: "save/RestoreV2_17/tensor_names"
  op: "Const"
  attr {
    key: "dtype"
    value {
      type: DT_STRING
    }
  }
  attr {
    key: "value"
    value {
      tensor {
        dtype: DT_STRING
        tensor_shape {
          dim {
            size: 1
          }
        }
        string_val: "pvg_model/conv1/biases/Adam_1"
      }
    }
  }
}
node {
  name: "save/RestoreV2_17/shape_and_slices"
  op: "Const"
  attr {
    key: "dtype"
    value {
      type: DT_STRING
    }
  }
  attr {
    key: "value"
    value {
      tensor {
        dtype: DT_STRING
        tensor_shape {
          dim {
            size: 1
          }
        }
        string_val: ""
      }
    }
  }
}
node {
  name: "save/RestoreV2_17"
  op: "RestoreV2"
  input: "save/Const"
  input: "save/RestoreV2_17/tensor_names"
  input: "save/RestoreV2_17/shape_and_slices"
  attr {
    key: "dtypes"
    value {
      list {
        type: DT_FLOAT
      }
    }
  }
}
node {
  name: "save/Assign_17"
  op: "Assign"
  input: "pvg_model/conv1/biases/Adam_1"
  input: "save/RestoreV2_17"
  attr {
    key: "T"
    value {
      type: DT_FLOAT
    }
  }
  attr {
    key: "_class"
    value {
      list {
        s: "loc:@pvg_model/conv1/biases"
      }
    }
  }
  attr {
    key: "use_locking"
    value {
      b: true
    }
  }
  attr {
    key: "validate_shape"
    value {
      b: true
    }
  }
}
node {
  name: "save/RestoreV2_18/tensor_names"
  op: "Const"
  attr {
    key: "dtype"
    value {
      type: DT_STRING
    }
  }
  attr {
    key: "value"
    value {
      tensor {
        dtype: DT_STRING
        tensor_shape {
          dim {
            size: 1
          }
        }
        string_val: "pvg_model/conv1/weights"
      }
    }
  }
}
node {
  name: "save/RestoreV2_18/shape_and_slices"
  op: "Const"
  attr {
    key: "dtype"
    value {
      type: DT_STRING
    }
  }
  attr {
    key: "value"
    value {
      tensor {
        dtype: DT_STRING
        tensor_shape {
          dim {
            size: 1
          }
        }
        string_val: ""
      }
    }
  }
}
node {
  name: "save/RestoreV2_18"
  op: "RestoreV2"
  input: "save/Const"
  input: "save/RestoreV2_18/tensor_names"
  input: "save/RestoreV2_18/shape_and_slices"
  attr {
    key: "dtypes"
    value {
      list {
        type: DT_FLOAT
      }
    }
  }
}
node {
  name: "save/Assign_18"
  op: "Assign"
  input: "pvg_model/conv1/weights"
  input: "save/RestoreV2_18"
  attr {
    key: "T"
    value {
      type: DT_FLOAT
    }
  }
  attr {
    key: "_class"
    value {
      list {
        s: "loc:@pvg_model/conv1/weights"
      }
    }
  }
  attr {
    key: "use_locking"
    value {
      b: true
    }
  }
  attr {
    key: "validate_shape"
    value {
      b: true
    }
  }
}
node {
  name: "save/RestoreV2_19/tensor_names"
  op: "Const"
  attr {
    key: "dtype"
    value {
      type: DT_STRING
    }
  }
  attr {
    key: "value"
    value {
      tensor {
        dtype: DT_STRING
        tensor_shape {
          dim {
            size: 1
          }
        }
        string_val: "pvg_model/conv1/weights/Adam"
      }
    }
  }
}
node {
  name: "save/RestoreV2_19/shape_and_slices"
  op: "Const"
  attr {
    key: "dtype"
    value {
      type: DT_STRING
    }
  }
  attr {
    key: "value"
    value {
      tensor {
        dtype: DT_STRING
        tensor_shape {
          dim {
            size: 1
          }
        }
        string_val: ""
      }
    }
  }
}
node {
  name: "save/RestoreV2_19"
  op: "RestoreV2"
  input: "save/Const"
  input: "save/RestoreV2_19/tensor_names"
  input: "save/RestoreV2_19/shape_and_slices"
  attr {
    key: "dtypes"
    value {
      list {
        type: DT_FLOAT
      }
    }
  }
}
node {
  name: "save/Assign_19"
  op: "Assign"
  input: "pvg_model/conv1/weights/Adam"
  input: "save/RestoreV2_19"
  attr {
    key: "T"
    value {
      type: DT_FLOAT
    }
  }
  attr {
    key: "_class"
    value {
      list {
        s: "loc:@pvg_model/conv1/weights"
      }
    }
  }
  attr {
    key: "use_locking"
    value {
      b: true
    }
  }
  attr {
    key: "validate_shape"
    value {
      b: true
    }
  }
}
node {
  name: "save/RestoreV2_20/tensor_names"
  op: "Const"
  attr {
    key: "dtype"
    value {
      type: DT_STRING
    }
  }
  attr {
    key: "value"
    value {
      tensor {
        dtype: DT_STRING
        tensor_shape {
          dim {
            size: 1
          }
        }
        string_val: "pvg_model/conv1/weights/Adam_1"
      }
    }
  }
}
node {
  name: "save/RestoreV2_20/shape_and_slices"
  op: "Const"
  attr {
    key: "dtype"
    value {
      type: DT_STRING
    }
  }
  attr {
    key: "value"
    value {
      tensor {
        dtype: DT_STRING
        tensor_shape {
          dim {
            size: 1
          }
        }
        string_val: ""
      }
    }
  }
}
node {
  name: "save/RestoreV2_20"
  op: "RestoreV2"
  input: "save/Const"
  input: "save/RestoreV2_20/tensor_names"
  input: "save/RestoreV2_20/shape_and_slices"
  attr {
    key: "dtypes"
    value {
      list {
        type: DT_FLOAT
      }
    }
  }
}
node {
  name: "save/Assign_20"
  op: "Assign"
  input: "pvg_model/conv1/weights/Adam_1"
  input: "save/RestoreV2_20"
  attr {
    key: "T"
    value {
      type: DT_FLOAT
    }
  }
  attr {
    key: "_class"
    value {
      list {
        s: "loc:@pvg_model/conv1/weights"
      }
    }
  }
  attr {
    key: "use_locking"
    value {
      b: true
    }
  }
  attr {
    key: "validate_shape"
    value {
      b: true
    }
  }
}
node {
  name: "save/RestoreV2_21/tensor_names"
  op: "Const"
  attr {
    key: "dtype"
    value {
      type: DT_STRING
    }
  }
  attr {
    key: "value"
    value {
      tensor {
        dtype: DT_STRING
        tensor_shape {
          dim {
            size: 1
          }
        }
        string_val: "pvg_model/conv2/biases"
      }
    }
  }
}
node {
  name: "save/RestoreV2_21/shape_and_slices"
  op: "Const"
  attr {
    key: "dtype"
    value {
      type: DT_STRING
    }
  }
  attr {
    key: "value"
    value {
      tensor {
        dtype: DT_STRING
        tensor_shape {
          dim {
            size: 1
          }
        }
        string_val: ""
      }
    }
  }
}
node {
  name: "save/RestoreV2_21"
  op: "RestoreV2"
  input: "save/Const"
  input: "save/RestoreV2_21/tensor_names"
  input: "save/RestoreV2_21/shape_and_slices"
  attr {
    key: "dtypes"
    value {
      list {
        type: DT_FLOAT
      }
    }
  }
}
node {
  name: "save/Assign_21"
  op: "Assign"
  input: "pvg_model/conv2/biases"
  input: "save/RestoreV2_21"
  attr {
    key: "T"
    value {
      type: DT_FLOAT
    }
  }
  attr {
    key: "_class"
    value {
      list {
        s: "loc:@pvg_model/conv2/biases"
      }
    }
  }
  attr {
    key: "use_locking"
    value {
      b: true
    }
  }
  attr {
    key: "validate_shape"
    value {
      b: true
    }
  }
}
node {
  name: "save/RestoreV2_22/tensor_names"
  op: "Const"
  attr {
    key: "dtype"
    value {
      type: DT_STRING
    }
  }
  attr {
    key: "value"
    value {
      tensor {
        dtype: DT_STRING
        tensor_shape {
          dim {
            size: 1
          }
        }
        string_val: "pvg_model/conv2/biases/Adam"
      }
    }
  }
}
node {
  name: "save/RestoreV2_22/shape_and_slices"
  op: "Const"
  attr {
    key: "dtype"
    value {
      type: DT_STRING
    }
  }
  attr {
    key: "value"
    value {
      tensor {
        dtype: DT_STRING
        tensor_shape {
          dim {
            size: 1
          }
        }
        string_val: ""
      }
    }
  }
}
node {
  name: "save/RestoreV2_22"
  op: "RestoreV2"
  input: "save/Const"
  input: "save/RestoreV2_22/tensor_names"
  input: "save/RestoreV2_22/shape_and_slices"
  attr {
    key: "dtypes"
    value {
      list {
        type: DT_FLOAT
      }
    }
  }
}
node {
  name: "save/Assign_22"
  op: "Assign"
  input: "pvg_model/conv2/biases/Adam"
  input: "save/RestoreV2_22"
  attr {
    key: "T"
    value {
      type: DT_FLOAT
    }
  }
  attr {
    key: "_class"
    value {
      list {
        s: "loc:@pvg_model/conv2/biases"
      }
    }
  }
  attr {
    key: "use_locking"
    value {
      b: true
    }
  }
  attr {
    key: "validate_shape"
    value {
      b: true
    }
  }
}
node {
  name: "save/RestoreV2_23/tensor_names"
  op: "Const"
  attr {
    key: "dtype"
    value {
      type: DT_STRING
    }
  }
  attr {
    key: "value"
    value {
      tensor {
        dtype: DT_STRING
        tensor_shape {
          dim {
            size: 1
          }
        }
        string_val: "pvg_model/conv2/biases/Adam_1"
      }
    }
  }
}
node {
  name: "save/RestoreV2_23/shape_and_slices"
  op: "Const"
  attr {
    key: "dtype"
    value {
      type: DT_STRING
    }
  }
  attr {
    key: "value"
    value {
      tensor {
        dtype: DT_STRING
        tensor_shape {
          dim {
            size: 1
          }
        }
        string_val: ""
      }
    }
  }
}
node {
  name: "save/RestoreV2_23"
  op: "RestoreV2"
  input: "save/Const"
  input: "save/RestoreV2_23/tensor_names"
  input: "save/RestoreV2_23/shape_and_slices"
  attr {
    key: "dtypes"
    value {
      list {
        type: DT_FLOAT
      }
    }
  }
}
node {
  name: "save/Assign_23"
  op: "Assign"
  input: "pvg_model/conv2/biases/Adam_1"
  input: "save/RestoreV2_23"
  attr {
    key: "T"
    value {
      type: DT_FLOAT
    }
  }
  attr {
    key: "_class"
    value {
      list {
        s: "loc:@pvg_model/conv2/biases"
      }
    }
  }
  attr {
    key: "use_locking"
    value {
      b: true
    }
  }
  attr {
    key: "validate_shape"
    value {
      b: true
    }
  }
}
node {
  name: "save/RestoreV2_24/tensor_names"
  op: "Const"
  attr {
    key: "dtype"
    value {
      type: DT_STRING
    }
  }
  attr {
    key: "value"
    value {
      tensor {
        dtype: DT_STRING
        tensor_shape {
          dim {
            size: 1
          }
        }
        string_val: "pvg_model/conv2/weights"
      }
    }
  }
}
node {
  name: "save/RestoreV2_24/shape_and_slices"
  op: "Const"
  attr {
    key: "dtype"
    value {
      type: DT_STRING
    }
  }
  attr {
    key: "value"
    value {
      tensor {
        dtype: DT_STRING
        tensor_shape {
          dim {
            size: 1
          }
        }
        string_val: ""
      }
    }
  }
}
node {
  name: "save/RestoreV2_24"
  op: "RestoreV2"
  input: "save/Const"
  input: "save/RestoreV2_24/tensor_names"
  input: "save/RestoreV2_24/shape_and_slices"
  attr {
    key: "dtypes"
    value {
      list {
        type: DT_FLOAT
      }
    }
  }
}
node {
  name: "save/Assign_24"
  op: "Assign"
  input: "pvg_model/conv2/weights"
  input: "save/RestoreV2_24"
  attr {
    key: "T"
    value {
      type: DT_FLOAT
    }
  }
  attr {
    key: "_class"
    value {
      list {
        s: "loc:@pvg_model/conv2/weights"
      }
    }
  }
  attr {
    key: "use_locking"
    value {
      b: true
    }
  }
  attr {
    key: "validate_shape"
    value {
      b: true
    }
  }
}
node {
  name: "save/RestoreV2_25/tensor_names"
  op: "Const"
  attr {
    key: "dtype"
    value {
      type: DT_STRING
    }
  }
  attr {
    key: "value"
    value {
      tensor {
        dtype: DT_STRING
        tensor_shape {
          dim {
            size: 1
          }
        }
        string_val: "pvg_model/conv2/weights/Adam"
      }
    }
  }
}
node {
  name: "save/RestoreV2_25/shape_and_slices"
  op: "Const"
  attr {
    key: "dtype"
    value {
      type: DT_STRING
    }
  }
  attr {
    key: "value"
    value {
      tensor {
        dtype: DT_STRING
        tensor_shape {
          dim {
            size: 1
          }
        }
        string_val: ""
      }
    }
  }
}
node {
  name: "save/RestoreV2_25"
  op: "RestoreV2"
  input: "save/Const"
  input: "save/RestoreV2_25/tensor_names"
  input: "save/RestoreV2_25/shape_and_slices"
  attr {
    key: "dtypes"
    value {
      list {
        type: DT_FLOAT
      }
    }
  }
}
node {
  name: "save/Assign_25"
  op: "Assign"
  input: "pvg_model/conv2/weights/Adam"
  input: "save/RestoreV2_25"
  attr {
    key: "T"
    value {
      type: DT_FLOAT
    }
  }
  attr {
    key: "_class"
    value {
      list {
        s: "loc:@pvg_model/conv2/weights"
      }
    }
  }
  attr {
    key: "use_locking"
    value {
      b: true
    }
  }
  attr {
    key: "validate_shape"
    value {
      b: true
    }
  }
}
node {
  name: "save/RestoreV2_26/tensor_names"
  op: "Const"
  attr {
    key: "dtype"
    value {
      type: DT_STRING
    }
  }
  attr {
    key: "value"
    value {
      tensor {
        dtype: DT_STRING
        tensor_shape {
          dim {
            size: 1
          }
        }
        string_val: "pvg_model/conv2/weights/Adam_1"
      }
    }
  }
}
node {
  name: "save/RestoreV2_26/shape_and_slices"
  op: "Const"
  attr {
    key: "dtype"
    value {
      type: DT_STRING
    }
  }
  attr {
    key: "value"
    value {
      tensor {
        dtype: DT_STRING
        tensor_shape {
          dim {
            size: 1
          }
        }
        string_val: ""
      }
    }
  }
}
node {
  name: "save/RestoreV2_26"
  op: "RestoreV2"
  input: "save/Const"
  input: "save/RestoreV2_26/tensor_names"
  input: "save/RestoreV2_26/shape_and_slices"
  attr {
    key: "dtypes"
    value {
      list {
        type: DT_FLOAT
      }
    }
  }
}
node {
  name: "save/Assign_26"
  op: "Assign"
  input: "pvg_model/conv2/weights/Adam_1"
  input: "save/RestoreV2_26"
  attr {
    key: "T"
    value {
      type: DT_FLOAT
    }
  }
  attr {
    key: "_class"
    value {
      list {
        s: "loc:@pvg_model/conv2/weights"
      }
    }
  }
  attr {
    key: "use_locking"
    value {
      b: true
    }
  }
  attr {
    key: "validate_shape"
    value {
      b: true
    }
  }
}
node {
  name: "save/RestoreV2_27/tensor_names"
  op: "Const"
  attr {
    key: "dtype"
    value {
      type: DT_STRING
    }
  }
  attr {
    key: "value"
    value {
      tensor {
        dtype: DT_STRING
        tensor_shape {
          dim {
            size: 1
          }
        }
        string_val: "pvg_model/conv3/biases"
      }
    }
  }
}
node {
  name: "save/RestoreV2_27/shape_and_slices"
  op: "Const"
  attr {
    key: "dtype"
    value {
      type: DT_STRING
    }
  }
  attr {
    key: "value"
    value {
      tensor {
        dtype: DT_STRING
        tensor_shape {
          dim {
            size: 1
          }
        }
        string_val: ""
      }
    }
  }
}
node {
  name: "save/RestoreV2_27"
  op: "RestoreV2"
  input: "save/Const"
  input: "save/RestoreV2_27/tensor_names"
  input: "save/RestoreV2_27/shape_and_slices"
  attr {
    key: "dtypes"
    value {
      list {
        type: DT_FLOAT
      }
    }
  }
}
node {
  name: "save/Assign_27"
  op: "Assign"
  input: "pvg_model/conv3/biases"
  input: "save/RestoreV2_27"
  attr {
    key: "T"
    value {
      type: DT_FLOAT
    }
  }
  attr {
    key: "_class"
    value {
      list {
        s: "loc:@pvg_model/conv3/biases"
      }
    }
  }
  attr {
    key: "use_locking"
    value {
      b: true
    }
  }
  attr {
    key: "validate_shape"
    value {
      b: true
    }
  }
}
node {
  name: "save/RestoreV2_28/tensor_names"
  op: "Const"
  attr {
    key: "dtype"
    value {
      type: DT_STRING
    }
  }
  attr {
    key: "value"
    value {
      tensor {
        dtype: DT_STRING
        tensor_shape {
          dim {
            size: 1
          }
        }
        string_val: "pvg_model/conv3/biases/Adam"
      }
    }
  }
}
node {
  name: "save/RestoreV2_28/shape_and_slices"
  op: "Const"
  attr {
    key: "dtype"
    value {
      type: DT_STRING
    }
  }
  attr {
    key: "value"
    value {
      tensor {
        dtype: DT_STRING
        tensor_shape {
          dim {
            size: 1
          }
        }
        string_val: ""
      }
    }
  }
}
node {
  name: "save/RestoreV2_28"
  op: "RestoreV2"
  input: "save/Const"
  input: "save/RestoreV2_28/tensor_names"
  input: "save/RestoreV2_28/shape_and_slices"
  attr {
    key: "dtypes"
    value {
      list {
        type: DT_FLOAT
      }
    }
  }
}
node {
  name: "save/Assign_28"
  op: "Assign"
  input: "pvg_model/conv3/biases/Adam"
  input: "save/RestoreV2_28"
  attr {
    key: "T"
    value {
      type: DT_FLOAT
    }
  }
  attr {
    key: "_class"
    value {
      list {
        s: "loc:@pvg_model/conv3/biases"
      }
    }
  }
  attr {
    key: "use_locking"
    value {
      b: true
    }
  }
  attr {
    key: "validate_shape"
    value {
      b: true
    }
  }
}
node {
  name: "save/RestoreV2_29/tensor_names"
  op: "Const"
  attr {
    key: "dtype"
    value {
      type: DT_STRING
    }
  }
  attr {
    key: "value"
    value {
      tensor {
        dtype: DT_STRING
        tensor_shape {
          dim {
            size: 1
          }
        }
        string_val: "pvg_model/conv3/biases/Adam_1"
      }
    }
  }
}
node {
  name: "save/RestoreV2_29/shape_and_slices"
  op: "Const"
  attr {
    key: "dtype"
    value {
      type: DT_STRING
    }
  }
  attr {
    key: "value"
    value {
      tensor {
        dtype: DT_STRING
        tensor_shape {
          dim {
            size: 1
          }
        }
        string_val: ""
      }
    }
  }
}
node {
  name: "save/RestoreV2_29"
  op: "RestoreV2"
  input: "save/Const"
  input: "save/RestoreV2_29/tensor_names"
  input: "save/RestoreV2_29/shape_and_slices"
  attr {
    key: "dtypes"
    value {
      list {
        type: DT_FLOAT
      }
    }
  }
}
node {
  name: "save/Assign_29"
  op: "Assign"
  input: "pvg_model/conv3/biases/Adam_1"
  input: "save/RestoreV2_29"
  attr {
    key: "T"
    value {
      type: DT_FLOAT
    }
  }
  attr {
    key: "_class"
    value {
      list {
        s: "loc:@pvg_model/conv3/biases"
      }
    }
  }
  attr {
    key: "use_locking"
    value {
      b: true
    }
  }
  attr {
    key: "validate_shape"
    value {
      b: true
    }
  }
}
node {
  name: "save/RestoreV2_30/tensor_names"
  op: "Const"
  attr {
    key: "dtype"
    value {
      type: DT_STRING
    }
  }
  attr {
    key: "value"
    value {
      tensor {
        dtype: DT_STRING
        tensor_shape {
          dim {
            size: 1
          }
        }
        string_val: "pvg_model/conv3/weights"
      }
    }
  }
}
node {
  name: "save/RestoreV2_30/shape_and_slices"
  op: "Const"
  attr {
    key: "dtype"
    value {
      type: DT_STRING
    }
  }
  attr {
    key: "value"
    value {
      tensor {
        dtype: DT_STRING
        tensor_shape {
          dim {
            size: 1
          }
        }
        string_val: ""
      }
    }
  }
}
node {
  name: "save/RestoreV2_30"
  op: "RestoreV2"
  input: "save/Const"
  input: "save/RestoreV2_30/tensor_names"
  input: "save/RestoreV2_30/shape_and_slices"
  attr {
    key: "dtypes"
    value {
      list {
        type: DT_FLOAT
      }
    }
  }
}
node {
  name: "save/Assign_30"
  op: "Assign"
  input: "pvg_model/conv3/weights"
  input: "save/RestoreV2_30"
  attr {
    key: "T"
    value {
      type: DT_FLOAT
    }
  }
  attr {
    key: "_class"
    value {
      list {
        s: "loc:@pvg_model/conv3/weights"
      }
    }
  }
  attr {
    key: "use_locking"
    value {
      b: true
    }
  }
  attr {
    key: "validate_shape"
    value {
      b: true
    }
  }
}
node {
  name: "save/RestoreV2_31/tensor_names"
  op: "Const"
  attr {
    key: "dtype"
    value {
      type: DT_STRING
    }
  }
  attr {
    key: "value"
    value {
      tensor {
        dtype: DT_STRING
        tensor_shape {
          dim {
            size: 1
          }
        }
        string_val: "pvg_model/conv3/weights/Adam"
      }
    }
  }
}
node {
  name: "save/RestoreV2_31/shape_and_slices"
  op: "Const"
  attr {
    key: "dtype"
    value {
      type: DT_STRING
    }
  }
  attr {
    key: "value"
    value {
      tensor {
        dtype: DT_STRING
        tensor_shape {
          dim {
            size: 1
          }
        }
        string_val: ""
      }
    }
  }
}
node {
  name: "save/RestoreV2_31"
  op: "RestoreV2"
  input: "save/Const"
  input: "save/RestoreV2_31/tensor_names"
  input: "save/RestoreV2_31/shape_and_slices"
  attr {
    key: "dtypes"
    value {
      list {
        type: DT_FLOAT
      }
    }
  }
}
node {
  name: "save/Assign_31"
  op: "Assign"
  input: "pvg_model/conv3/weights/Adam"
  input: "save/RestoreV2_31"
  attr {
    key: "T"
    value {
      type: DT_FLOAT
    }
  }
  attr {
    key: "_class"
    value {
      list {
        s: "loc:@pvg_model/conv3/weights"
      }
    }
  }
  attr {
    key: "use_locking"
    value {
      b: true
    }
  }
  attr {
    key: "validate_shape"
    value {
      b: true
    }
  }
}
node {
  name: "save/RestoreV2_32/tensor_names"
  op: "Const"
  attr {
    key: "dtype"
    value {
      type: DT_STRING
    }
  }
  attr {
    key: "value"
    value {
      tensor {
        dtype: DT_STRING
        tensor_shape {
          dim {
            size: 1
          }
        }
        string_val: "pvg_model/conv3/weights/Adam_1"
      }
    }
  }
}
node {
  name: "save/RestoreV2_32/shape_and_slices"
  op: "Const"
  attr {
    key: "dtype"
    value {
      type: DT_STRING
    }
  }
  attr {
    key: "value"
    value {
      tensor {
        dtype: DT_STRING
        tensor_shape {
          dim {
            size: 1
          }
        }
        string_val: ""
      }
    }
  }
}
node {
  name: "save/RestoreV2_32"
  op: "RestoreV2"
  input: "save/Const"
  input: "save/RestoreV2_32/tensor_names"
  input: "save/RestoreV2_32/shape_and_slices"
  attr {
    key: "dtypes"
    value {
      list {
        type: DT_FLOAT
      }
    }
  }
}
node {
  name: "save/Assign_32"
  op: "Assign"
  input: "pvg_model/conv3/weights/Adam_1"
  input: "save/RestoreV2_32"
  attr {
    key: "T"
    value {
      type: DT_FLOAT
    }
  }
  attr {
    key: "_class"
    value {
      list {
        s: "loc:@pvg_model/conv3/weights"
      }
    }
  }
  attr {
    key: "use_locking"
    value {
      b: true
    }
  }
  attr {
    key: "validate_shape"
    value {
      b: true
    }
  }
}
node {
  name: "save/RestoreV2_33/tensor_names"
  op: "Const"
  attr {
    key: "dtype"
    value {
      type: DT_STRING
    }
  }
  attr {
    key: "value"
    value {
      tensor {
        dtype: DT_STRING
        tensor_shape {
          dim {
            size: 1
          }
        }
        string_val: "pvg_model/fc5/biases"
      }
    }
  }
}
node {
  name: "save/RestoreV2_33/shape_and_slices"
  op: "Const"
  attr {
    key: "dtype"
    value {
      type: DT_STRING
    }
  }
  attr {
    key: "value"
    value {
      tensor {
        dtype: DT_STRING
        tensor_shape {
          dim {
            size: 1
          }
        }
        string_val: ""
      }
    }
  }
}
node {
  name: "save/RestoreV2_33"
  op: "RestoreV2"
  input: "save/Const"
  input: "save/RestoreV2_33/tensor_names"
  input: "save/RestoreV2_33/shape_and_slices"
  attr {
    key: "dtypes"
    value {
      list {
        type: DT_FLOAT
      }
    }
  }
}
node {
  name: "save/Assign_33"
  op: "Assign"
  input: "pvg_model/fc5/biases"
  input: "save/RestoreV2_33"
  attr {
    key: "T"
    value {
      type: DT_FLOAT
    }
  }
  attr {
    key: "_class"
    value {
      list {
        s: "loc:@pvg_model/fc5/biases"
      }
    }
  }
  attr {
    key: "use_locking"
    value {
      b: true
    }
  }
  attr {
    key: "validate_shape"
    value {
      b: true
    }
  }
}
node {
  name: "save/RestoreV2_34/tensor_names"
  op: "Const"
  attr {
    key: "dtype"
    value {
      type: DT_STRING
    }
  }
  attr {
    key: "value"
    value {
      tensor {
        dtype: DT_STRING
        tensor_shape {
          dim {
            size: 1
          }
        }
        string_val: "pvg_model/fc5/biases/Adam"
      }
    }
  }
}
node {
  name: "save/RestoreV2_34/shape_and_slices"
  op: "Const"
  attr {
    key: "dtype"
    value {
      type: DT_STRING
    }
  }
  attr {
    key: "value"
    value {
      tensor {
        dtype: DT_STRING
        tensor_shape {
          dim {
            size: 1
          }
        }
        string_val: ""
      }
    }
  }
}
node {
  name: "save/RestoreV2_34"
  op: "RestoreV2"
  input: "save/Const"
  input: "save/RestoreV2_34/tensor_names"
  input: "save/RestoreV2_34/shape_and_slices"
  attr {
    key: "dtypes"
    value {
      list {
        type: DT_FLOAT
      }
    }
  }
}
node {
  name: "save/Assign_34"
  op: "Assign"
  input: "pvg_model/fc5/biases/Adam"
  input: "save/RestoreV2_34"
  attr {
    key: "T"
    value {
      type: DT_FLOAT
    }
  }
  attr {
    key: "_class"
    value {
      list {
        s: "loc:@pvg_model/fc5/biases"
      }
    }
  }
  attr {
    key: "use_locking"
    value {
      b: true
    }
  }
  attr {
    key: "validate_shape"
    value {
      b: true
    }
  }
}
node {
  name: "save/RestoreV2_35/tensor_names"
  op: "Const"
  attr {
    key: "dtype"
    value {
      type: DT_STRING
    }
  }
  attr {
    key: "value"
    value {
      tensor {
        dtype: DT_STRING
        tensor_shape {
          dim {
            size: 1
          }
        }
        string_val: "pvg_model/fc5/biases/Adam_1"
      }
    }
  }
}
node {
  name: "save/RestoreV2_35/shape_and_slices"
  op: "Const"
  attr {
    key: "dtype"
    value {
      type: DT_STRING
    }
  }
  attr {
    key: "value"
    value {
      tensor {
        dtype: DT_STRING
        tensor_shape {
          dim {
            size: 1
          }
        }
        string_val: ""
      }
    }
  }
}
node {
  name: "save/RestoreV2_35"
  op: "RestoreV2"
  input: "save/Const"
  input: "save/RestoreV2_35/tensor_names"
  input: "save/RestoreV2_35/shape_and_slices"
  attr {
    key: "dtypes"
    value {
      list {
        type: DT_FLOAT
      }
    }
  }
}
node {
  name: "save/Assign_35"
  op: "Assign"
  input: "pvg_model/fc5/biases/Adam_1"
  input: "save/RestoreV2_35"
  attr {
    key: "T"
    value {
      type: DT_FLOAT
    }
  }
  attr {
    key: "_class"
    value {
      list {
        s: "loc:@pvg_model/fc5/biases"
      }
    }
  }
  attr {
    key: "use_locking"
    value {
      b: true
    }
  }
  attr {
    key: "validate_shape"
    value {
      b: true
    }
  }
}
node {
  name: "save/RestoreV2_36/tensor_names"
  op: "Const"
  attr {
    key: "dtype"
    value {
      type: DT_STRING
    }
  }
  attr {
    key: "value"
    value {
      tensor {
        dtype: DT_STRING
        tensor_shape {
          dim {
            size: 1
          }
        }
        string_val: "pvg_model/fc5/weights"
      }
    }
  }
}
node {
  name: "save/RestoreV2_36/shape_and_slices"
  op: "Const"
  attr {
    key: "dtype"
    value {
      type: DT_STRING
    }
  }
  attr {
    key: "value"
    value {
      tensor {
        dtype: DT_STRING
        tensor_shape {
          dim {
            size: 1
          }
        }
        string_val: ""
      }
    }
  }
}
node {
  name: "save/RestoreV2_36"
  op: "RestoreV2"
  input: "save/Const"
  input: "save/RestoreV2_36/tensor_names"
  input: "save/RestoreV2_36/shape_and_slices"
  attr {
    key: "dtypes"
    value {
      list {
        type: DT_FLOAT
      }
    }
  }
}
node {
  name: "save/Assign_36"
  op: "Assign"
  input: "pvg_model/fc5/weights"
  input: "save/RestoreV2_36"
  attr {
    key: "T"
    value {
      type: DT_FLOAT
    }
  }
  attr {
    key: "_class"
    value {
      list {
        s: "loc:@pvg_model/fc5/weights"
      }
    }
  }
  attr {
    key: "use_locking"
    value {
      b: true
    }
  }
  attr {
    key: "validate_shape"
    value {
      b: true
    }
  }
}
node {
  name: "save/RestoreV2_37/tensor_names"
  op: "Const"
  attr {
    key: "dtype"
    value {
      type: DT_STRING
    }
  }
  attr {
    key: "value"
    value {
      tensor {
        dtype: DT_STRING
        tensor_shape {
          dim {
            size: 1
          }
        }
        string_val: "pvg_model/fc5/weights/Adam"
      }
    }
  }
}
node {
  name: "save/RestoreV2_37/shape_and_slices"
  op: "Const"
  attr {
    key: "dtype"
    value {
      type: DT_STRING
    }
  }
  attr {
    key: "value"
    value {
      tensor {
        dtype: DT_STRING
        tensor_shape {
          dim {
            size: 1
          }
        }
        string_val: ""
      }
    }
  }
}
node {
  name: "save/RestoreV2_37"
  op: "RestoreV2"
  input: "save/Const"
  input: "save/RestoreV2_37/tensor_names"
  input: "save/RestoreV2_37/shape_and_slices"
  attr {
    key: "dtypes"
    value {
      list {
        type: DT_FLOAT
      }
    }
  }
}
node {
  name: "save/Assign_37"
  op: "Assign"
  input: "pvg_model/fc5/weights/Adam"
  input: "save/RestoreV2_37"
  attr {
    key: "T"
    value {
      type: DT_FLOAT
    }
  }
  attr {
    key: "_class"
    value {
      list {
        s: "loc:@pvg_model/fc5/weights"
      }
    }
  }
  attr {
    key: "use_locking"
    value {
      b: true
    }
  }
  attr {
    key: "validate_shape"
    value {
      b: true
    }
  }
}
node {
  name: "save/RestoreV2_38/tensor_names"
  op: "Const"
  attr {
    key: "dtype"
    value {
      type: DT_STRING
    }
  }
  attr {
    key: "value"
    value {
      tensor {
        dtype: DT_STRING
        tensor_shape {
          dim {
            size: 1
          }
        }
        string_val: "pvg_model/fc5/weights/Adam_1"
      }
    }
  }
}
node {
  name: "save/RestoreV2_38/shape_and_slices"
  op: "Const"
  attr {
    key: "dtype"
    value {
      type: DT_STRING
    }
  }
  attr {
    key: "value"
    value {
      tensor {
        dtype: DT_STRING
        tensor_shape {
          dim {
            size: 1
          }
        }
        string_val: ""
      }
    }
  }
}
node {
  name: "save/RestoreV2_38"
  op: "RestoreV2"
  input: "save/Const"
  input: "save/RestoreV2_38/tensor_names"
  input: "save/RestoreV2_38/shape_and_slices"
  attr {
    key: "dtypes"
    value {
      list {
        type: DT_FLOAT
      }
    }
  }
}
node {
  name: "save/Assign_38"
  op: "Assign"
  input: "pvg_model/fc5/weights/Adam_1"
  input: "save/RestoreV2_38"
  attr {
    key: "T"
    value {
      type: DT_FLOAT
    }
  }
  attr {
    key: "_class"
    value {
      list {
        s: "loc:@pvg_model/fc5/weights"
      }
    }
  }
  attr {
    key: "use_locking"
    value {
      b: true
    }
  }
  attr {
    key: "validate_shape"
    value {
      b: true
    }
  }
}
node {
  name: "save/RestoreV2_39/tensor_names"
  op: "Const"
  attr {
    key: "dtype"
    value {
      type: DT_STRING
    }
  }
  attr {
    key: "value"
    value {
      tensor {
        dtype: DT_STRING
        tensor_shape {
          dim {
            size: 1
          }
        }
        string_val: "pvg_model/fc6/biases"
      }
    }
  }
}
node {
  name: "save/RestoreV2_39/shape_and_slices"
  op: "Const"
  attr {
    key: "dtype"
    value {
      type: DT_STRING
    }
  }
  attr {
    key: "value"
    value {
      tensor {
        dtype: DT_STRING
        tensor_shape {
          dim {
            size: 1
          }
        }
        string_val: ""
      }
    }
  }
}
node {
  name: "save/RestoreV2_39"
  op: "RestoreV2"
  input: "save/Const"
  input: "save/RestoreV2_39/tensor_names"
  input: "save/RestoreV2_39/shape_and_slices"
  attr {
    key: "dtypes"
    value {
      list {
        type: DT_FLOAT
      }
    }
  }
}
node {
  name: "save/Assign_39"
  op: "Assign"
  input: "pvg_model/fc6/biases"
  input: "save/RestoreV2_39"
  attr {
    key: "T"
    value {
      type: DT_FLOAT
    }
  }
  attr {
    key: "_class"
    value {
      list {
        s: "loc:@pvg_model/fc6/biases"
      }
    }
  }
  attr {
    key: "use_locking"
    value {
      b: true
    }
  }
  attr {
    key: "validate_shape"
    value {
      b: true
    }
  }
}
node {
  name: "save/RestoreV2_40/tensor_names"
  op: "Const"
  attr {
    key: "dtype"
    value {
      type: DT_STRING
    }
  }
  attr {
    key: "value"
    value {
      tensor {
        dtype: DT_STRING
        tensor_shape {
          dim {
            size: 1
          }
        }
        string_val: "pvg_model/fc6/biases/Adam"
      }
    }
  }
}
node {
  name: "save/RestoreV2_40/shape_and_slices"
  op: "Const"
  attr {
    key: "dtype"
    value {
      type: DT_STRING
    }
  }
  attr {
    key: "value"
    value {
      tensor {
        dtype: DT_STRING
        tensor_shape {
          dim {
            size: 1
          }
        }
        string_val: ""
      }
    }
  }
}
node {
  name: "save/RestoreV2_40"
  op: "RestoreV2"
  input: "save/Const"
  input: "save/RestoreV2_40/tensor_names"
  input: "save/RestoreV2_40/shape_and_slices"
  attr {
    key: "dtypes"
    value {
      list {
        type: DT_FLOAT
      }
    }
  }
}
node {
  name: "save/Assign_40"
  op: "Assign"
  input: "pvg_model/fc6/biases/Adam"
  input: "save/RestoreV2_40"
  attr {
    key: "T"
    value {
      type: DT_FLOAT
    }
  }
  attr {
    key: "_class"
    value {
      list {
        s: "loc:@pvg_model/fc6/biases"
      }
    }
  }
  attr {
    key: "use_locking"
    value {
      b: true
    }
  }
  attr {
    key: "validate_shape"
    value {
      b: true
    }
  }
}
node {
  name: "save/RestoreV2_41/tensor_names"
  op: "Const"
  attr {
    key: "dtype"
    value {
      type: DT_STRING
    }
  }
  attr {
    key: "value"
    value {
      tensor {
        dtype: DT_STRING
        tensor_shape {
          dim {
            size: 1
          }
        }
        string_val: "pvg_model/fc6/biases/Adam_1"
      }
    }
  }
}
node {
  name: "save/RestoreV2_41/shape_and_slices"
  op: "Const"
  attr {
    key: "dtype"
    value {
      type: DT_STRING
    }
  }
  attr {
    key: "value"
    value {
      tensor {
        dtype: DT_STRING
        tensor_shape {
          dim {
            size: 1
          }
        }
        string_val: ""
      }
    }
  }
}
node {
  name: "save/RestoreV2_41"
  op: "RestoreV2"
  input: "save/Const"
  input: "save/RestoreV2_41/tensor_names"
  input: "save/RestoreV2_41/shape_and_slices"
  attr {
    key: "dtypes"
    value {
      list {
        type: DT_FLOAT
      }
    }
  }
}
node {
  name: "save/Assign_41"
  op: "Assign"
  input: "pvg_model/fc6/biases/Adam_1"
  input: "save/RestoreV2_41"
  attr {
    key: "T"
    value {
      type: DT_FLOAT
    }
  }
  attr {
    key: "_class"
    value {
      list {
        s: "loc:@pvg_model/fc6/biases"
      }
    }
  }
  attr {
    key: "use_locking"
    value {
      b: true
    }
  }
  attr {
    key: "validate_shape"
    value {
      b: true
    }
  }
}
node {
  name: "save/RestoreV2_42/tensor_names"
  op: "Const"
  attr {
    key: "dtype"
    value {
      type: DT_STRING
    }
  }
  attr {
    key: "value"
    value {
      tensor {
        dtype: DT_STRING
        tensor_shape {
          dim {
            size: 1
          }
        }
        string_val: "pvg_model/fc6/weights"
      }
    }
  }
}
node {
  name: "save/RestoreV2_42/shape_and_slices"
  op: "Const"
  attr {
    key: "dtype"
    value {
      type: DT_STRING
    }
  }
  attr {
    key: "value"
    value {
      tensor {
        dtype: DT_STRING
        tensor_shape {
          dim {
            size: 1
          }
        }
        string_val: ""
      }
    }
  }
}
node {
  name: "save/RestoreV2_42"
  op: "RestoreV2"
  input: "save/Const"
  input: "save/RestoreV2_42/tensor_names"
  input: "save/RestoreV2_42/shape_and_slices"
  attr {
    key: "dtypes"
    value {
      list {
        type: DT_FLOAT
      }
    }
  }
}
node {
  name: "save/Assign_42"
  op: "Assign"
  input: "pvg_model/fc6/weights"
  input: "save/RestoreV2_42"
  attr {
    key: "T"
    value {
      type: DT_FLOAT
    }
  }
  attr {
    key: "_class"
    value {
      list {
        s: "loc:@pvg_model/fc6/weights"
      }
    }
  }
  attr {
    key: "use_locking"
    value {
      b: true
    }
  }
  attr {
    key: "validate_shape"
    value {
      b: true
    }
  }
}
node {
  name: "save/RestoreV2_43/tensor_names"
  op: "Const"
  attr {
    key: "dtype"
    value {
      type: DT_STRING
    }
  }
  attr {
    key: "value"
    value {
      tensor {
        dtype: DT_STRING
        tensor_shape {
          dim {
            size: 1
          }
        }
        string_val: "pvg_model/fc6/weights/Adam"
      }
    }
  }
}
node {
  name: "save/RestoreV2_43/shape_and_slices"
  op: "Const"
  attr {
    key: "dtype"
    value {
      type: DT_STRING
    }
  }
  attr {
    key: "value"
    value {
      tensor {
        dtype: DT_STRING
        tensor_shape {
          dim {
            size: 1
          }
        }
        string_val: ""
      }
    }
  }
}
node {
  name: "save/RestoreV2_43"
  op: "RestoreV2"
  input: "save/Const"
  input: "save/RestoreV2_43/tensor_names"
  input: "save/RestoreV2_43/shape_and_slices"
  attr {
    key: "dtypes"
    value {
      list {
        type: DT_FLOAT
      }
    }
  }
}
node {
  name: "save/Assign_43"
  op: "Assign"
  input: "pvg_model/fc6/weights/Adam"
  input: "save/RestoreV2_43"
  attr {
    key: "T"
    value {
      type: DT_FLOAT
    }
  }
  attr {
    key: "_class"
    value {
      list {
        s: "loc:@pvg_model/fc6/weights"
      }
    }
  }
  attr {
    key: "use_locking"
    value {
      b: true
    }
  }
  attr {
    key: "validate_shape"
    value {
      b: true
    }
  }
}
node {
  name: "save/RestoreV2_44/tensor_names"
  op: "Const"
  attr {
    key: "dtype"
    value {
      type: DT_STRING
    }
  }
  attr {
    key: "value"
    value {
      tensor {
        dtype: DT_STRING
        tensor_shape {
          dim {
            size: 1
          }
        }
        string_val: "pvg_model/fc6/weights/Adam_1"
      }
    }
  }
}
node {
  name: "save/RestoreV2_44/shape_and_slices"
  op: "Const"
  attr {
    key: "dtype"
    value {
      type: DT_STRING
    }
  }
  attr {
    key: "value"
    value {
      tensor {
        dtype: DT_STRING
        tensor_shape {
          dim {
            size: 1
          }
        }
        string_val: ""
      }
    }
  }
}
node {
  name: "save/RestoreV2_44"
  op: "RestoreV2"
  input: "save/Const"
  input: "save/RestoreV2_44/tensor_names"
  input: "save/RestoreV2_44/shape_and_slices"
  attr {
    key: "dtypes"
    value {
      list {
        type: DT_FLOAT
      }
    }
  }
}
node {
  name: "save/Assign_44"
  op: "Assign"
  input: "pvg_model/fc6/weights/Adam_1"
  input: "save/RestoreV2_44"
  attr {
    key: "T"
    value {
      type: DT_FLOAT
    }
  }
  attr {
    key: "_class"
    value {
      list {
        s: "loc:@pvg_model/fc6/weights"
      }
    }
  }
  attr {
    key: "use_locking"
    value {
      b: true
    }
  }
  attr {
    key: "validate_shape"
    value {
      b: true
    }
  }
}
node {
  name: "save/RestoreV2_45/tensor_names"
  op: "Const"
  attr {
    key: "dtype"
    value {
      type: DT_STRING
    }
  }
  attr {
    key: "value"
    value {
      tensor {
        dtype: DT_STRING
        tensor_shape {
          dim {
            size: 1
          }
        }
        string_val: "train_step/beta1_power"
      }
    }
  }
}
node {
  name: "save/RestoreV2_45/shape_and_slices"
  op: "Const"
  attr {
    key: "dtype"
    value {
      type: DT_STRING
    }
  }
  attr {
    key: "value"
    value {
      tensor {
        dtype: DT_STRING
        tensor_shape {
          dim {
            size: 1
          }
        }
        string_val: ""
      }
    }
  }
}
node {
  name: "save/RestoreV2_45"
  op: "RestoreV2"
  input: "save/Const"
  input: "save/RestoreV2_45/tensor_names"
  input: "save/RestoreV2_45/shape_and_slices"
  attr {
    key: "dtypes"
    value {
      list {
        type: DT_FLOAT
      }
    }
  }
}
node {
  name: "save/Assign_45"
  op: "Assign"
  input: "train_step/beta1_power"
  input: "save/RestoreV2_45"
  attr {
    key: "T"
    value {
      type: DT_FLOAT
    }
  }
  attr {
    key: "_class"
    value {
      list {
        s: "loc:@pvg_model/BatchNorm/beta"
      }
    }
  }
  attr {
    key: "use_locking"
    value {
      b: true
    }
  }
  attr {
    key: "validate_shape"
    value {
      b: true
    }
  }
}
node {
  name: "save/RestoreV2_46/tensor_names"
  op: "Const"
  attr {
    key: "dtype"
    value {
      type: DT_STRING
    }
  }
  attr {
    key: "value"
    value {
      tensor {
        dtype: DT_STRING
        tensor_shape {
          dim {
            size: 1
          }
        }
        string_val: "train_step/beta2_power"
      }
    }
  }
}
node {
  name: "save/RestoreV2_46/shape_and_slices"
  op: "Const"
  attr {
    key: "dtype"
    value {
      type: DT_STRING
    }
  }
  attr {
    key: "value"
    value {
      tensor {
        dtype: DT_STRING
        tensor_shape {
          dim {
            size: 1
          }
        }
        string_val: ""
      }
    }
  }
}
node {
  name: "save/RestoreV2_46"
  op: "RestoreV2"
  input: "save/Const"
  input: "save/RestoreV2_46/tensor_names"
  input: "save/RestoreV2_46/shape_and_slices"
  attr {
    key: "dtypes"
    value {
      list {
        type: DT_FLOAT
      }
    }
  }
}
node {
  name: "save/Assign_46"
  op: "Assign"
  input: "train_step/beta2_power"
  input: "save/RestoreV2_46"
  attr {
    key: "T"
    value {
      type: DT_FLOAT
    }
  }
  attr {
    key: "_class"
    value {
      list {
        s: "loc:@pvg_model/BatchNorm/beta"
      }
    }
  }
  attr {
    key: "use_locking"
    value {
      b: true
    }
  }
  attr {
    key: "validate_shape"
    value {
      b: true
    }
  }
}
node {
  name: "save/restore_all"
  op: "NoOp"
  input: "^save/Assign"
  input: "^save/Assign_1"
  input: "^save/Assign_2"
  input: "^save/Assign_3"
  input: "^save/Assign_4"
  input: "^save/Assign_5"
  input: "^save/Assign_6"
  input: "^save/Assign_7"
  input: "^save/Assign_8"
  input: "^save/Assign_9"
  input: "^save/Assign_10"
  input: "^save/Assign_11"
  input: "^save/Assign_12"
  input: "^save/Assign_13"
  input: "^save/Assign_14"
  input: "^save/Assign_15"
  input: "^save/Assign_16"
  input: "^save/Assign_17"
  input: "^save/Assign_18"
  input: "^save/Assign_19"
  input: "^save/Assign_20"
  input: "^save/Assign_21"
  input: "^save/Assign_22"
  input: "^save/Assign_23"
  input: "^save/Assign_24"
  input: "^save/Assign_25"
  input: "^save/Assign_26"
  input: "^save/Assign_27"
  input: "^save/Assign_28"
  input: "^save/Assign_29"
  input: "^save/Assign_30"
  input: "^save/Assign_31"
  input: "^save/Assign_32"
  input: "^save/Assign_33"
  input: "^save/Assign_34"
  input: "^save/Assign_35"
  input: "^save/Assign_36"
  input: "^save/Assign_37"
  input: "^save/Assign_38"
  input: "^save/Assign_39"
  input: "^save/Assign_40"
  input: "^save/Assign_41"
  input: "^save/Assign_42"
  input: "^save/Assign_43"
  input: "^save/Assign_44"
  input: "^save/Assign_45"
  input: "^save/Assign_46"
}
node {
  name: "init"
  op: "NoOp"
  input: "^pvg_model/conv1/weights/Assign"
  input: "^pvg_model/conv1/biases/Assign"
  input: "^pvg_model/BatchNorm/beta/Assign"
  input: "^pvg_model/BatchNorm/moving_mean/Assign"
  input: "^pvg_model/BatchNorm/moving_variance/Assign"
  input: "^pvg_model/conv2/weights/Assign"
  input: "^pvg_model/conv2/biases/Assign"
  input: "^pvg_model/BatchNorm_1/beta/Assign"
  input: "^pvg_model/BatchNorm_1/moving_mean/Assign"
  input: "^pvg_model/BatchNorm_1/moving_variance/Assign"
  input: "^pvg_model/conv3/weights/Assign"
  input: "^pvg_model/conv3/biases/Assign"
  input: "^pvg_model/BatchNorm_2/beta/Assign"
  input: "^pvg_model/BatchNorm_2/moving_mean/Assign"
  input: "^pvg_model/BatchNorm_2/moving_variance/Assign"
  input: "^pvg_model/fc5/weights/Assign"
  input: "^pvg_model/fc5/biases/Assign"
  input: "^pvg_model/fc6/weights/Assign"
  input: "^pvg_model/fc6/biases/Assign"
  input: "^train_step/beta1_power/Assign"
  input: "^train_step/beta2_power/Assign"
  input: "^pvg_model/conv1/weights/Adam/Assign"
  input: "^pvg_model/conv1/weights/Adam_1/Assign"
  input: "^pvg_model/conv1/biases/Adam/Assign"
  input: "^pvg_model/conv1/biases/Adam_1/Assign"
  input: "^pvg_model/BatchNorm/beta/Adam/Assign"
  input: "^pvg_model/BatchNorm/beta/Adam_1/Assign"
  input: "^pvg_model/conv2/weights/Adam/Assign"
  input: "^pvg_model/conv2/weights/Adam_1/Assign"
  input: "^pvg_model/conv2/biases/Adam/Assign"
  input: "^pvg_model/conv2/biases/Adam_1/Assign"
  input: "^pvg_model/BatchNorm_1/beta/Adam/Assign"
  input: "^pvg_model/BatchNorm_1/beta/Adam_1/Assign"
  input: "^pvg_model/conv3/weights/Adam/Assign"
  input: "^pvg_model/conv3/weights/Adam_1/Assign"
  input: "^pvg_model/conv3/biases/Adam/Assign"
  input: "^pvg_model/conv3/biases/Adam_1/Assign"
  input: "^pvg_model/BatchNorm_2/beta/Adam/Assign"
  input: "^pvg_model/BatchNorm_2/beta/Adam_1/Assign"
  input: "^pvg_model/fc5/weights/Adam/Assign"
  input: "^pvg_model/fc5/weights/Adam_1/Assign"
  input: "^pvg_model/fc5/biases/Adam/Assign"
  input: "^pvg_model/fc5/biases/Adam_1/Assign"
  input: "^pvg_model/fc6/weights/Adam/Assign"
  input: "^pvg_model/fc6/weights/Adam_1/Assign"
  input: "^pvg_model/fc6/biases/Adam/Assign"
  input: "^pvg_model/fc6/biases/Adam_1/Assign"
}
versions {
  producer: 24
}
